models/MNIST/practice/model.pth (torch_old, 88668 bytes, 8 tensors)

conv1.weight f4 [10, 1, 5, 5]
000000 0e 75 59 3e a6 99 67 3e 01 d9 9c 3e b8 68 05 3e
       0.21236059 0.22617206 0.3063431 0.13028228
000010 8c e1 ba 3e 61 26 aa 3d 12 2b 1c 3e d5 a9 f9 3d
       0.36500204 0.083081014 0.15250805 0.12190596
000020 b4 d3 75 3e 91 f5 88 3b cd df c7 3d 48 5f eb bd
       0.2400654 0.0041796644 0.097594835 -0.11492783
000030 0b 16 4a be 48 35 9c bd 8f 94 f8 3d 74 72 45 3d
       -0.19734971 -0.0762735 0.1213771 0.048204854
000040 08 6d 7e be bc 25 e7 3d a8 da 8e be 8b a6 a2 3d
       -0.2484628 0.11286494 -0.27901196 0.07941922
000050 f8 ff 1f be 4d 17 6a be ca 3b 7c be 33 70 e5 bc
       -0.15624988 -0.22860451 -0.24632183 -0.028007602
000060 b1 63 fd bc 6c 99 57 3e fc 0a 0f be 22 26 b8 bd
       -0.030931326 0.2105462 -0.13969034 -0.08991648
000070 ee c1 e7 3d 21 d6 02 3e 3a 04 29 3e 42 13 e4 bd
       0.11316286 0.12776996 0.16505519 -0.11136486
000080 04 06 56 be 66 0c 1e be 1e c4 be 3d 20 27 91 3e
       -0.20900732 -0.15434417 0.0931475 0.28350163
000090 16 e6 af bc 87 02 f8 bd 92 65 f7 3c 8c c9 26 be
       -0.021472018 -0.12109857 0.0301998 -0.16287822
0000a0 c2 70 88 3e ec b7 36 be 49 33 43 be e4 e1 e2 bd
       0.26648527 -0.17843598 -0.19062532 -0.110782415
0000b0 78 e2 5f 3b da 43 6f 3e a5 dc 5e 3e 97 0d 75 be
       0.0034162086 0.23365727 0.21763857 -0.23930965
0000c0 e4 75 a5 3c dd a2 2a be 88 df ff 3d 5f ad 89 3e
       0.020197816 -0.1666369 0.12493807 0.26890084
0000d0 4b 55 0e 3e 9b 1d 30 be 94 ec 70 be 6e d5 5a 3e
       0.13899724 -0.17198794 -0.23527747 0.2137048
0000e0 94 73 98 3e ac b2 04 be d0 25 08 bd f9 33 a3 be
       0.2977568 -0.12958783 -0.033239186 -0.3187559
0000f0 20 66 4c 3e 65 56 ca 3e 4f 24 35 3e 04 42 9a be
       0.19960833 0.3951904 0.17689632 -0.3012849
000100 1f a6 9b be 4c 1b 93 3e 45 9e 95 3e db 72 a3 3e
       -0.30400178 0.28731763 0.29222313 0.31923565
000110 89 08 64 3d c5 c3 05 3e 39 f4 50 3e 85 6c 9b 3e
       0.055672202 0.13062961 0.20405664 0.3035623
000120 e5 63 a3 3e a2 8d 80 3e 7f b7 a5 3e 7e 16 7b bd
       0.3191215 0.25108057 0.3236656 -0.061300747
000130 5d cb 5b be 05 87 34 3c 47 65 23 3d e4 98 9d 3d
       -0.21464296 0.011018519 0.039891507 0.07695177
000140 e2 9e 0d be 8f 8d d6 3b f6 86 6d be 1f a7 c9 bd
       -0.1383014 0.006547637 -0.23196015 -0.09846329
000150 37 06 74 bd e6 40 8c be a6 0a d2 bd 29 79 0a 3e
       -0.05957624 -0.27393264 -0.10255937 0.13522781
000160 20 30 86 3e 98 43 1e 3e 15 22 08 bd 61 e8 05 bd
       0.2620859 0.15455472 -0.03323563 -0.032692317
000170 3c 82 3d 3e ee 17 b0 3d 2b db 09 be 00 cb 6f bc
       0.18506712 0.08598314 -0.13462512 -0.014635801
000180 84 36 92 3e b2 02 73 3e 93 59 f5 3d 96 e5 81 bd
       0.28557217 0.23731497 0.119799756 -0.06342618
000190 5d 67 47 3e 22 ff 69 3e 1b f1 d6 3d 61 e3 89 3e
       0.19473024 0.22851232 0.10495206 0.2693129
0001a0 88 d5 15 3e 49 ff 40 3d 73 29 a8 bd 8c 85 b4 bd
       0.14632237 0.04711846 -0.08211031 -0.088145345
0001b0 c4 a5 73 3e d5 0f 8e 3e 50 8a 8e be 82 83 ea bd
       0.23793703 0.27746454 -0.278399 -0.114508644
0001c0 cb 53 b8 3d b9 22 71 3e db 1f be 3e 6f d7 a2 bd
       0.09000357 0.23548402 0.3713368 -0.07951247
0001d0 30 be ea bd 85 e8 86 3e 9f b3 c5 3e 29 06 ac 3d
       -0.11462057 0.26349273 0.38613603 0.083996125
0001e0 c8 7a 8f 3d 73 16 93 3e ca de ac 3d ff ef 4c 3d
       0.070058405 0.28728065 0.08440931 0.050033566
0001f0 99 63 6d 3e 11 a4 c5 3d 17 9c 1e be a1 62 9e be
       0.23182525 0.09650434 -0.15489231 -0.30934623
000200 5a 8f aa be bb 2c 92 be 32 8b 79 be 0e ee ab be
       -0.33312494 -0.28549752 -0.24369505 -0.3358006
000210 ce cd 3b be 3c d7 0e be 52 50 ea bc 96 cc 4b 3d
       -0.18340227 -0.13949293 -0.028602753 0.049755655
000220 94 25 88 bb ef 22 7f 3e a3 96 43 3e 9f 45 bd 3d
       -0.0041548703 0.2491567 0.19100432 0.09241795
000230 ec b0 9b 3e bc fa c7 3e 7f e9 fc 3d 59 ac d4 3e
       0.30408418 0.39058483 0.12349223 0.4153774
000240 3c 98 a8 3e 31 75 8f 3e 2d a7 54 3e 86 29 c1 3d
       0.32928646 0.28019097 0.20766897 0.09431748
000250 62 4c ee bd 34 e6 65 bb 34 1b 27 3e ce 70 d1 bd
       -0.116356626 -0.0035079839 0.16318971 -0.10226594
000260 fa 12 b4 3d 2f 0a 98 bd 45 20 51 bb b2 15 2d bd
       0.08792682 -0.07423817 -0.0031910103 -0.04225702
000270 63 bc cd bd aa 29 4e be de 9c 05 be bc d1 3d bd
       -0.100456975 -0.20133081 -0.13048121 -0.046342596
000280 26 60 f1 3c 5a 4a 86 3d e1 46 1a 3e ae 2b 18 3d
       0.029464792 0.0655715 0.150661 0.03715103
000290 81 57 7d be 9b 9c 10 be da a0 a5 bd ea c6 0a be
       -0.24740411 -0.1412224 -0.080873206 -0.13552442
0002a0 69 69 c1 3d 39 08 89 bc c7 8e 85 3e 0a c9 bb 3d
       0.094439335 -0.016727554 0.26085493 0.091692045
0002b0 b3 93 50 3e 1e 6c c3 bc d7 dc 89 3e a4 e4 bc bd
       0.20368843 -0.023855265 0.269263 -0.09223297
0002c0 b7 2f 42 3e e7 80 53 bb 1b 89 06 be 72 cf 05 bd
       0.18963514 -0.0032272877 -0.13138239 -0.03266854
0002d0 5f c6 22 be aa 02 3a 3e af e8 d9 3c b5 ca a6 3c
       -0.15895985 0.18165079 0.02660021 0.02036033
0002e0 36 e2 cb bc e4 3d 80 bd 8d 60 3b 3e 3b 48 a8 3e
       -0.02488814 -0.06261805 0.1829855 0.32867607
0002f0 d0 6b 72 3e cf 18 ec 3d ee a2 5a be a6 c7 51 3d
       0.2367394 0.11528169 -0.21351215 0.05121579
000300 d5 2b 25 bd f4 b9 a2 bd dd 79 6a 3e 75 d8 9d be
       -0.040325005 -0.07945624 0.2289805 -0.30829206
000310 a9 7b 3e be f8 13 31 be 0e 1b 2d 39 06 4e 1c be
       -0.1860186 -0.17292774 0.00016508644 -0.15264139
000320 f1 77 75 be 44 63 97 be 15 a7 12 be dc 63 6f be
       -0.23971535 -0.2956792 -0.14321549 -0.23377937
000330 4f fe 95 3d 77 f3 b4 3c 54 35 aa bb 3a e2 a2 3c
       0.07323896 0.02208875 -0.0051943455 0.019883264
000340 ca 2c 57 be a7 a6 a1 bd 39 15 ed bc a2 82 24 be
       -0.2101318 -0.078931145 -0.028940784 -0.16065457
000350 64 8a c0 bd 8f ed b5 bd e3 ec 80 be 2f ce ad 3d
       -0.09401396 -0.08883201 -0.2518073 0.08486592
000360 d5 32 27 bd 83 47 91 bc 21 d7 39 3c 45 8d 03 bd
       -0.04081996 -0.017734295 0.011342795 -0.032117147
000370 88 e0 00 3e 39 3c 43 3e 5d 8b 86 3e 77 cd aa bd
       0.12585652 0.19065942 0.262782 -0.083399706
000380 e3 91 28 3e f7 b3 8d 3e 1d ba ce 3e dd 52 ad 3e
       0.16461901 0.27676365 0.40376368 0.33852282
000390 ea 05 58 3e 66 28 0f 3e 24 5a a9 3e 8b c2 07 3e
       0.21096006 0.13980255 0.33076584 0.13257806
0003a0 c4 83 b6 bd 05 a1 53 be a7 ac e0 bd b9 96 c5 3e
       -0.08911851 -0.20666893 -0.10970431 0.38591555
0003b0 95 3e 2b bd 7f 8c 6e be be 22 dd bc 85 ac 6c 3c
       -0.04180773 -0.23295783 -0.026994105 0.014445429
0003c0 94 c6 6d 3e af 62 0b be b9 6b 66 bd f5 ad 1c be
       0.23220283 -0.13611864 -0.056255076 -0.15300734
0003d0 c9 f3 40 be 83 71 05 3e a3 01 cb bd af 08 30 be
       -0.18842997 0.13031583 -0.099124216 -0.17190813
0003e0 5c 2f e0 bc 2b e2 95 bd
       -0.027366333 -0.07318529

conv1.bias f4 [10]
000000 27 89 7b 3d f0 0b 14 3e 85 54 10 3e b6 06 3f bc
       0.061410096 0.14457679 0.14094742 -0.011659315
000010 b7 63 44 3e 67 c6 96 bd 34 3e 83 bd 91 76 1b bd
       0.19178663 -0.07362061 -0.06408349 -0.03795487
000020 9c 84 75 3e 04 2b ed 3d
       0.23976368 0.1158047

conv2.weight f4 [20, 10, 5, 5]
000000 d7 6f 4f bd 8e 0d 82 bb 7e 87 ab bc a7 d2 38 3c
       -0.05064377 -0.003968901 -0.020938631 0.011280692
000010 76 29 a9 3a c0 79 44 3c 70 1b da bd 7f b0 af bc
       0.0012906033 0.011991918 -0.106497645 -0.021446465
000020 c8 33 2c bc 36 63 7f 3b 3d c4 df bc 97 c2 be bd
       -0.0105103925 0.0038969046 -0.027315253 -0.09314459
000030 41 48 65 bd 8a e2 30 3d e2 9a 94 bd 66 ed 35 bc
       -0.05597711 0.043184794 -0.07256104 -0.0111039635
000040 06 6c 11 bd bc d8 16 3d c4 5f 00 bd 11 11 4f bd
       -0.03550341 0.036827788 -0.03134133 -0.050553385
000050 3f 55 b3 bd 3c fa e6 bc c8 57 04 bc c1 5b e3 3c
       -0.08756494 -0.028195493 -0.008077569 0.027753713
000060 85 f8 8d bd 62 a4 2f 3d 69 fb 25 bc 3c 27 7c 3c
       -0.06932167 0.042881377 -0.010130742 0.015390214
000070 c7 ac 50 ba 15 c3 45 bd 1d f8 51 bd 00 a4 96 bc
       -0.0007960316 -0.048281748 -0.05126201 -0.018388748
000080 40 38 97 bc 82 21 e8 3b 80 27 f9 bc 28 e7 be 3c
       -0.01845944 0.0070840726 -0.030414343 0.023303583
000090 5e 60 02 bd a5 da 37 3d 9c e1 82 3c a6 1f 31 bd
       -0.031830184 0.04488625 0.01597672 -0.043243073
0000a0 70 c7 81 bd 47 9d 29 3d 5c 96 4d 3d e9 72 21 3d
       -0.06336868 0.041409757 0.050192222 0.039416227
0000b0 0f cc 68 bd f9 7f b7 bc 18 43 85 bc f2 37 d9 3c
       -0.05683523 -0.02239989 -0.016267344 0.026515935
0000c0 d9 60 71 bd 4e 0b 9b bd 8b 3d ed bd bf a0 62 be
       -0.05893025 -0.075705156 -0.11584004 -0.22131632
0000d0 85 b6 2f be 2a e8 91 bd 1e 0e 36 3d a7 32 15 be
       -0.1715947 -0.0712436 0.044447057 -0.14570104
0000e0 24 e3 d3 bd 9e bb de 3c 1e 61 95 3c 44 f1 19 bc
       -0.10346058 0.027189072 0.018234786 -0.009395901
0000f0 18 eb 6f be 0f 93 62 bd 92 ae 18 3e 23 40 80 b9
       -0.23429525 -0.055316027 0.14910343 -0.00024461848
000100 3e b0 c3 bd 0c 0f d0 bd 2e 3c b3 3d 5c dd 26 3e
       -0.095551 -0.1015912 0.08751713 0.1629538
000110 b2 59 0a 3d 1c 87 9e bd df 0d fc 3c 94 45 37 3d
       0.033776946 -0.07740614 0.030768333 0.04474409
000120 4c d9 b2 3d a1 86 a1 bb 05 47 45 bd ae f8 e1 ba
       0.08732852 -0.004929379 -0.048163433 -0.001724025
000130 b7 30 f3 3c 1f 1b ab 3a 44 2a bc 3d 76 53 50 3d
       0.029686315 0.0013054347 0.09187749 0.050860845
000140 05 bd a1 3c 9b 90 dc 3d 5c 15 8a 3d 12 02 8a 3d
       0.019743452 0.10769769 0.06742355 0.06738676
000150 b3 8c 85 3c 8c c7 80 3c c6 1f 4e 3d 46 77 04 3d
       0.016302442 0.015720151 0.05032327 0.03234031
000160 d3 e4 e9 bc 65 5d ff 3c ed e8 b2 bc 29 49 50 3d
       -0.028551495 0.031172464 -0.021839583 0.05085102
000170 75 56 3a 3d 76 95 06 3d 7d bc 4f 3d 4e d6 a7 3c
       0.045492608 0.03285738 0.050716866 0.02048793
000180 e1 f0 1a 3d b6 38 19 3c fb 5d c9 bb db 8c 30 bd
       0.037827376 0.0093519 -0.0061452365 -0.04310308
000190 98 4d 4a be e1 f3 49 bd 2c e2 bf 3d 2a a5 87 3d
       -0.19756162 -0.049304847 0.09369311 0.066232994
0001a0 72 72 ba 3d d9 77 05 be 2f ca 37 3d 20 31 35 3d
       0.0910386 -0.13034 0.04487055 0.044236302
0001b0 b0 b3 a2 bd ee 44 8f bc 4e ec b4 bc fd c0 8d 3d
       -0.07944429 -0.017488923 -0.022085335 0.06921575
0001c0 73 e9 ce bc 0a bf cf bc ff 83 b6 bc e3 19 e3 bb
       -0.025257802 -0.02535965 -0.022279738 -0.006930576
0001d0 ff 2d 68 3d db b3 9a bd a3 e8 85 bc 01 1f 31 bc
       0.05668449 -0.07553836 -0.016346281 -0.010810615
0001e0 db f2 77 3d 96 9d 5a bc 56 b7 9a bb 8a 10 1a 3c
       0.06053434 -0.0133432355 -0.0047215624 0.009403357
0001f0 07 da 9b bd e3 2d 56 bd d7 1e bf bd 08 5b 9c bd
       -0.07609945 -0.052289855 -0.09332054 -0.0763455
000200 ff 09 0e 3d cf 4a 5a 3b 86 8a f9 bd 17 bf 2e bd
       0.0346775 0.003330875 -0.121846244 -0.042662706
000210 1d 06 e2 bb 08 08 23 bc ad a4 01 be 22 d6 ca bd
       -0.0068977014 -0.009950645 -0.12660475 -0.09904124
000220 5b cb d5 bd 47 c7 bb bc 1a 74 b2 bc bc 23 92 bd
       -0.104391776 -0.022922171 -0.021783877 -0.07135722
000230 f2 67 39 3b c4 aa 8e bd 61 57 f5 bd 4d d4 20 3d
       0.0028290716 -0.06966165 -0.11979557 0.039264966
000240 58 a2 e5 3c 0b 36 fc bb 59 ff b0 bd 3b 24 d1 bd
       0.028031513 -0.007696872 -0.08642454 -0.102119885
000250 63 72 be 3b f7 f9 1e 3d 84 b9 60 bd b7 61 77 bc
       0.005811976 0.038812604 -0.05486442 -0.015098981
000260 98 81 f8 3b ff 70 8c bd 92 16 20 3c b4 62 2b 3d
       0.007583808 -0.0685749 0.009771006 0.041842178
000270 0a 05 3f 3d 35 00 92 bc 37 99 97 bd 75 8a f0 bc
       0.046635665 -0.017822364 -0.0740227 -0.029362896
000280 7f ed 98 bc 03 02 a6 bc aa b9 14 3d 08 e5 8c ba
       -0.018667934 -0.020264631 0.036309876 -0.0010749409
000290 04 b8 6e 3d 7e a7 57 3d 5b 21 9a bd 65 bf 8a bd
       0.05828096 0.052649967 -0.07525893 -0.06774787
0002a0 19 81 cf bc 2c af 63 bd 7d f5 e7 bc 05 3c 6e bd
       -0.025330113 -0.05558698 -0.0283153 -0.058162708
0002b0 0d c5 8e bc 44 6b 28 bd e8 13 24 3d ab e3 27 bd
       -0.017427946 -0.04111792 0.040058047 -0.040988605
0002c0 19 b6 17 bc 7d 0e 48 bc 1c f7 3c 3d 96 31 9f 3c
       -0.009259724 -0.0122104855 0.0461341 0.019432824
0002d0 3f 4b e7 bc 9f 5b 22 bd 13 ea 33 bd 60 99 b5 bc
       -0.028234122 -0.039638158 -0.043924402 -0.022167861
0002e0 65 b7 1e 3d e6 e3 86 3b 44 73 93 bd 56 93 ae bc
       0.038749117 0.004116523 -0.071997195 -0.02131049
0002f0 c5 a6 41 3c 5b 33 38 bd 77 b7 71 3c 6d e4 5c 3c
       0.011819546 -0.04497085 0.014753214 0.013482195
000300 b1 54 a2 bb e6 2c 3e bd ff 63 a2 3c 64 09 5c 3c
       -0.0049539437 -0.046429537 0.019823072 0.013429973
000310 a1 3d 1a 3d 42 fb a2 3d 8d eb 1f 3c 41 1e 58 3d
       0.03765643 0.0795808 0.0097607495 0.052763227
000320 d9 61 b7 bc 4d ab 20 3c 3d 92 68 3c db 8f 46 bd
       -0.022385525 0.009806466 0.014195022 -0.048477035
000330 06 7c 40 bd c2 65 72 bd db d1 49 3d e1 59 bc 3c
       -0.046993278 -0.059179075 0.0492724 0.022992076
000340 80 b1 6f bc 51 c8 0e bc d4 01 3d bd 8a 6b ac bd
       -0.014629722 -0.008714751 -0.04614432 -0.08418949
000350 69 e9 44 bd be 67 d3 3c 38 c1 10 bb d2 18 77 bb
       -0.04807416 0.025806304 -0.0022087824 -0.0037704003
000360 20 21 3c 3c da 5a 10 bd 18 17 1a bd aa ec 14 3c
       0.011482507 -0.035242893 -0.03761968 0.009089628
000370 d3 0f 27 bc fa bf 9d bc 0c 1f ac 3c 1e da c9 3b
       -0.010196644 -0.01925658 0.021010898 0.006160035
000380 f4 65 15 3c 13 79 12 3d d7 7a 77 bd 89 de fb bc
       0.009118546 0.035759997 -0.060419884 -0.030745761
000390 b0 dc 58 bc e5 36 78 3d 5b 3b 89 3d a2 a2 a9 bd
       -0.01323621 0.060599227 0.06700774 -0.08282973
0003a0 86 2a 36 bd 4e 62 af 3d 70 f5 2e 3d e4 79 43 bd
       -0.044474147 0.08563672 0.042714536 -0.047723666
0003b0 d8 48 92 3c 39 f9 f6 3d d6 54 cc 3d 9b 1b 98 bc
       0.017857 0.12059254 0.09977119 -0.01856785
0003c0 4d ac 92 bd b4 ee 85 bd 0a 68 4f 3d 75 bb f5 3b
       -0.0716177 -0.0653967 0.05063633 0.0074991533
0003d0 bb 8e 68 bc 33 48 6f 3c 77 aa f1 3c 2d eb 7b 3d
       -0.014194186 0.014604616 0.02950023 0.061503578
0003e0 33 ba 95 bd 6f 06 6a 3c db fd 38 bb c5 12 2c bd
       -0.07310905 0.01428376 -0.0028227482 -0.042010088
0003f0 17 32 ab bd 72 9a 64 3d 99 30 ad 3c 2c 4a 31 bd
       -0.08359163 0.055811353 0.021141337 -0.043283626

conv2.bias f4 [20]
000000 d6 85 64 bc 10 da 23 3d f7 ae 37 bc 2a 61 95 bd
       -0.013947925 0.040002882 -0.011211148 -0.07293923
000010 a0 9b e6 3c 0f 85 60 bc 3a a2 11 3d 42 10 01 3d
       0.02815038 -0.013703599 0.035555102 0.031509645
000020 56 d1 bb bc 24 30 85 3c a3 af 81 3d 1c 83 02 3c
       -0.022926968 0.016258307 0.06332328 0.007965829
000030 b4 e3 f3 bc 98 9d 2f 3d 7a ca 6f bd 76 be 63 bd
       -0.029771663 0.042874902 -0.058542706 -0.05560156
000040 b0 78 cd 3c 5a 32 11 bd e9 8c 99 3c 63 c6 dd 3c
       0.025081962 -0.03544841 0.018743949 0.027072137

fc1.weight f4 [50, 320]
000000 f0 a0 a7 3c d0 7d b8 3b f5 64 d4 3d f0 98 83 3d
       0.020462483 0.0056302324 0.103708185 0.06425655
000010 2b 78 da bb c3 47 58 3c 34 e9 a4 3b 0d 48 a1 bc
       -0.006667157 0.013200703 0.005032683 -0.019687677
000020 91 04 6f bd 9b 8a 4e bc e3 a1 81 3d 75 7d 51 bc
       -0.058353964 -0.012606288 0.063297056 -0.012786259
000030 9e d2 b4 bc d5 93 a9 bd 5c af cc 3c 1d f3 61 bd
       -0.022073086 -0.0828015 0.024985962 -0.05516349
000040 16 c1 32 3c b3 07 2d bd 1b a1 5a 3d b9 46 84 3c
       0.010910293 -0.04224367 0.0533763 0.016147004
000050 34 2c 43 bd 52 a8 32 bc a3 c1 99 b9 7e 5f d2 bc
       -0.047649577 -0.0109043885 -0.00029326705 -0.0256803
000060 b3 90 66 3c 5d d9 4b bd 44 93 2f bc de 68 1c bc
       0.014072585 -0.04976784 -0.010716263 -0.009546487
000070 ea 16 49 bd a3 26 f2 ba b3 a6 4c bd 9b 13 56 3d
       -0.04909412 -0.0018474649 -0.049963664 0.05226479
000080 8b 45 46 bc a1 af 9f bd 21 1a ef bc 73 32 14 3d
       -0.012101541 -0.077971704 -0.029187264 0.036180925
000090 81 2d 04 bd c3 e3 a3 bc f9 70 e4 3c 0c 5b b2 3d
       -0.03226996 -0.020006066 0.0278859 0.08708772
0000a0 8f a2 37 bc 08 3e 44 3d d4 a6 11 3c ae 86 80 bc
       -0.011208191 0.04791072 0.008889873 -0.01568922
0000b0 36 b7 88 bc 4c 1d 7e bd ad 26 9a 3c ff ff b7 bd
       -0.016688924 -0.06203966 0.01881727 -0.08984374
0000c0 f1 2e 36 3d 4a 82 c5 bc 07 f1 24 bd e8 a4 39 3d
       0.04447836 -0.024109978 -0.040268924 0.045323282
0000d0 7b 3e 4e 3d a1 61 d5 3c 6b f5 d2 3b ba 76 7a ba
       0.050352555 0.02604753 0.0064379475 -0.0009554435
0000e0 58 68 40 3d d1 e1 cf bc 68 da ad bc e6 33 db bb
       0.04697451 -0.025376232 -0.021222308 -0.0066895364
0000f0 37 f2 43 3d e7 37 a4 bc cc 8f ae bb ba 53 b5 bb
       0.047838416 -0.020046188 -0.0053272005 -0.0055336626
000100 e0 e2 17 bc d7 29 60 3c 01 9e a0 bd 72 24 55 b9
       -0.0092704 0.01368185 -0.07842637 -0.0002032684
000110 26 f4 2b bd f4 2a ed 3d 0b bf 24 bc f0 38 b9 3d
       -0.041980885 0.11580458 -0.010055314 0.09044063
000120 59 59 90 bd 38 33 79 3c f9 19 80 3c 50 d0 4d bc
       -0.07048292 0.015209965 0.015637385 -0.012561873
000130 95 bc b6 bd 56 6f bd bc 42 3c 8d bc 3f 02 cd 3c
       -0.08922688 -0.023124378 -0.017240647 0.025025485
000140 23 68 db bc 61 ec e4 3c 3d b6 41 3d 86 e1 bd 3d
       -0.026783055 0.027944745 0.047292937 0.09271531
000150 91 47 bd bb 96 f9 f8 3b 57 52 16 3c f8 f5 d1 bc
       -0.0057763536 0.0075981123 0.009174905 -0.025629982
000160 96 9b 3e 3c 4b d7 39 3d 83 b7 60 bd 84 c7 4e ba
       0.011633774 0.045371335 -0.05486251 -0.00078880065
000170 21 54 13 3d ef 65 4e 3d be ca 53 3d 26 4b b0 3c
       0.035968903 0.05039018 0.051707022 0.021520209
000180 77 f1 14 3d b5 28 82 bc d6 5e ab 3d 8f 0e 83 bc
       0.03636309 -0.015888551 0.08367698 -0.015998153
000190 c5 47 20 3c 0b 1c 5d ba 2f 58 07 3c 4f 68 d5 bd
       0.009782736 -0.00084346597 0.008260771 -0.10420286
0001a0 d6 17 d7 bc 3b e2 1b bd bb 4e 55 3d 26 22 83 bc
       -0.026256483 -0.038057547 0.052077036 -0.016007494
0001b0 33 de 84 bd 58 73 74 bd af c3 ef bc 33 18 1b 3d
       -0.06487694 -0.059680313 -0.029268114 0.037864875
0001c0 39 4c b2 bd 06 59 19 bc a2 f7 4c bd a6 b9 d3 bd
       -0.087059446 -0.009359604 -0.05004085 -0.10338144
0001d0 f0 51 c6 bc 5f 0d 7e bc 17 fe 04 3c 2c 1b 86 3d
       -0.024208993 -0.015506118 0.00811722 0.065481514
0001e0 2b bd 03 3d f5 95 bb bc cd c3 b4 3c 2a b4 36 3b
       0.032162827 -0.022898654 0.022066021 0.0027878382
0001f0 a3 06 f5 bc b1 3b 4f 3d 0e 66 28 3c a9 82 49 ba
       -0.029910391 0.050594036 0.010278238 -0.00076870114
000200 79 c5 ed bb cb da 5c 3d 62 40 ff 3c 1d ed 0c 3d
       -0.0072562066 0.053919595 0.03115863 0.034405816
000210 22 13 1b bd 83 cc cd 3c 25 2b 94 bc a5 63 be 3b
       -0.037860043 0.025121933 -0.01808698 0.0058102184
000220 48 b1 6d bc 8b f2 14 3d 34 6e 34 3d 19 3f 23 bd
       -0.014507599 0.03636412 0.04405041 -0.039855096
000230 71 11 71 3c 0f fb a9 3a d9 43 2e bd 90 48 04 3c
       0.014713631 0.0012968498 -0.042545173 0.008073941
000240 be da c6 bc d3 43 66 3c a1 27 a1 3c 04 7e 17 bb
       -0.024274226 0.0140542565 0.019672217 -0.0023115883
000250 a9 d2 8b 3c 54 da 94 bb d1 a2 bd bc 59 76 43 3d
       0.017068224 -0.0045426283 -0.023148926 0.047720287
000260 e1 3e 49 bd 21 e2 62 3d d1 54 b3 bb e5 c1 22 3d
       -0.04913223 0.055391435 -0.0054727574 0.039735693
000270 44 a1 65 bd bb fd 5a 3d 02 64 0a bd 98 8a 89 3c
       -0.056061998 0.053464632 -0.03378678 0.01678972
000280 37 df 27 bd 58 6e f7 3c ee f8 cb bd 88 77 67 bc
       -0.04098436 0.030203983 -0.09959589 -0.01412762
000290 6a d3 85 bc 9f c3 be bd b6 88 cb bd dc 1d af 3c
       -0.016336162 -0.093146555 -0.09938185 0.021376543
0002a0 fb 94 23 bd f9 70 42 3c ab a2 59 3d 66 c2 92 bc
       -0.039937 0.011867755 0.053133648 -0.017914962
0002b0 d3 24 8b 3c fb 2d 9a 3d 8b ac 99 bc 82 9f ee 3a
       0.016985333 0.07528301 -0.018759033 0.0018205496
0002c0 4d e4 dc bd a3 02 42 bd 26 16 9e bd cd 0f e6 bb
       -0.107857324 -0.047365796 -0.07719068 -0.0070209266
0002d0 dd d3 c6 bd 37 7c df 37 e1 a8 84 3b bf c7 4e bd
       -0.097083785 2.6641514e-05 0.0040484522 -0.05048346
0002e0 4a 37 cc bb 92 06 31 bd 31 56 1d bd c7 2d 0e bc
       -0.006232177 -0.043219157 -0.038412277 -0.008677906
0002f0 f6 95 80 bc 5a a0 55 3d ca 38 b3 3d c1 44 28 bd
       -0.015696507 0.052154876 0.08751066 -0.041081194
000300 6c b4 57 bd 26 9f 61 bc d0 68 e9 3c 56 33 c2 3c
       -0.052662298 -0.013770854 0.028492361 0.02370612
000310 df c1 80 3d da 8c 32 3d 4f 28 63 3d d5 e7 06 bd
       0.06286978 0.043591358 0.055458363 -0.032935936
000320 1d af c6 3c 11 d8 a1 bc 7e f2 56 3d d8 f3 e9 bc
       0.024253422 -0.019756349 0.052477352 -0.028558657
000330 8a 2e a5 bd c2 1e d1 bb 11 c9 5a bc 22 e8 7e bd
       -0.08065517 -0.0063818404 -0.013353602 -0.062233098
000340 d9 d9 1a 3c 34 64 6e 3c ed 0c a5 3d 07 73 72 3a
       0.009451353 0.0145502575 0.08059106 0.0009248708
000350 ce 3f c3 bc 8f 97 c8 3b fc f1 5a 3d 40 94 f9 3c
       -0.023834135 0.006121583 0.05345343 0.030466199
000360 ff 47 38 3d 6f ef 5b bd eb d8 8e ba cb 83 b1 bc
       0.044990536 -0.05369514 -0.0010898387 -0.02166929
000370 98 a0 05 3d 68 0d 88 3c 85 2e 88 bb 73 f1 81 bc
       0.032623857 0.016607955 -0.004155936 -0.015862202
000380 0a 47 cc 3c 86 ea 4d bd 67 8d de bb d3 ff 29 bd
       0.024936218 -0.050272487 -0.006791759 -0.04150374
000390 42 f6 da 3c 45 66 02 bd 66 43 fb 3b 9b bf 60 3d
       0.026728753 -0.031835813 0.0076679466 0.05487023
0003a0 b6 d1 85 bd 78 3d bd bc 99 83 d8 ba a9 08 15 bd
       -0.0653414 -0.0231006 -0.0016518711 -0.036385212
0003b0 2a ef 05 bd f2 55 7d bc 63 10 03 3b 44 77 6e bc
       -0.032698788 -0.0154623855 0.001999878 -0.014554802
0003c0 a5 ac 30 bb ef 67 f1 bc 1f 74 51 bd dd 20 1c 3d
       -0.0026958373 -0.029468505 -0.051136132 0.03811728
0003d0 97 b3 9f bd 88 f0 6b bd 55 04 32 bd 80 8d 96 3d
       -0.07797926 -0.057602435 -0.043461163 0.07351208
0003e0 9f 02 ab bd ad f0 8a bc b2 59 e7 3c ef 7f 3f bc
       -0.08350109 -0.016960466 0.028241012 -0.011688217
0003f0 10 b3 a4 bd be e4 91 b9 0c 04 87 3d 89 bb 03 3d
       -0.08041966 -0.0002782698 0.06592569 0.03216127

fc1.bias f4 [50]
000000 29 1b 46 bc 4c 09 12 bd f8 1d 72 bd 01 5e 3c 3c
       -0.012091436 -0.035653397 -0.05911061 0.011497022
000010 03 aa 4d 3d e6 c0 5d 3b 43 24 b3 3c 12 fc f1 3b
       0.050210964 0.00338369 0.021867877 0.0073847855
000020 6a 6e 7d 3d b9 b9 5b 3d 8f 6d 1e 3d f9 05 6c 3c
       0.061872877 0.053643916 0.038678702 0.014405721
000030 05 0a f7 3c 6c 03 6e bc 44 96 df bc 50 a3 b0 bc
       0.030156145 -0.014527183 -0.027293332 -0.021562248
000040 9a b4 9e bc 71 5d 65 3d 3f 6e 27 3c d0 d8 03 3d
       -0.019373227 0.055997316 0.010219156 0.03218919
000050 38 94 04 3d 8d 0d 2a 3d 3c 94 7b ba c3 23 26 3d
       0.032367915 0.04151683 -0.0009596979 0.04056145
000060 f4 c7 00 bd 3f 77 7b bc 76 3c 16 3d 3a 1f 05 bd
       -0.03144069 -0.015348255 0.036678754 -0.032500483
000070 2d e8 20 bd 0d 4d 0e bd 42 30 d6 bc 73 d6 e0 bc
       -0.03928392 -0.03474145 -0.026146058 -0.027446007
000080 da d1 d3 3c 11 2d fb 3c 07 d2 53 3c 1b 40 a9 3b
       0.025856901 0.030661138 0.012928492 0.0051651127
000090 5f 82 3f 3d 7c 4a 57 3d ff 7d 8e 38 8c 89 e4 3c
       0.04675519 0.05256127 6.794556e-05 0.027897619
0000a0 0e ed 2c ba 3a 7c 25 3c 45 9c 74 bc c3 aa b1 3b
       -0.0006596603 0.010100419 -0.014929836 0.0054219677
0000b0 21 7f 8e 3d 81 bc 94 3b 79 a2 04 3d 35 26 d0 3c
       0.06957842 0.004539073 0.03238151 0.025408844
0000c0 46 86 02 3d c8 10 4d 3d
       0.031866334 0.050064832

fc2.weight f4 [10, 50]
000000 11 24 1e bc 32 25 07 3e f3 bb f0 3d 62 6c 23 3e
       -0.009652154 0.13197783 0.117545985 0.15959314
000010 5a 19 79 3e 8a 78 01 be 58 26 2f be 8e 36 01 bd
       0.24326077 -0.12643638 -0.1710447 -0.031546168
000020 b2 36 9d be 62 74 31 3e e3 a8 1a be b9 70 fe bd
       -0.30705792 0.17329553 -0.15103488 -0.12423844
000030 dc d2 ed bd b2 8b 7e be ee ff 57 be 5c 05 3f 3e
       -0.11612484 -0.24857977 -0.21093723 0.18654388
000040 24 51 36 be 1d c0 41 3e a3 fc e2 bc 6a be 26 3e
       -0.1780439 0.18920942 -0.027708357 0.16283575
000050 52 45 ce 3d fc 37 53 be cf b0 42 be 06 bb 14 3d
       0.100718156 -0.20626825 -0.1901276 0.036311172
000060 29 2e 30 3e 01 27 40 3d e7 d8 99 bb d2 97 05 be
       0.17205109 0.046912197 -0.004695046 -0.13046196
000070 d6 76 ef 3d 0b ac 2e 3e b6 ee e1 bd 4a fc 16 be
       0.11692588 0.17057817 -0.110318586 -0.14744678
000080 a1 aa f0 3d a0 f4 b3 bb 95 90 2c 3e d1 e6 09 be
       0.11751295 -0.005491808 0.16852029 -0.13466956
000090 02 e3 f6 bc 33 95 72 bd 82 f2 5b be 7e fc 07 3d
       -0.030137543 -0.05922432 -0.21479228 0.03319978
0000a0 8b 2d 40 3b b5 7e 05 be d7 ca 67 3e 7c 9a bf bd
       0.002932402 -0.13036616 0.22635971 -0.093556374
0000b0 bb 71 36 be a3 49 78 3e e5 bd 0e bd 6c 6a 48 be
       -0.17816822 0.2424684 -0.034849066 -0.19571847
0000c0 e1 aa 1d 3e f9 36 12 3e a7 f8 5f 3e 56 a1 80 be
       0.15397216 0.14278783 0.21872197 -0.2512309
0000d0 71 1c 6a bb 3f 6b 88 bd 84 52 20 be 0e aa e9 bd
       -0.0035722519 -0.066610806 -0.15656477 -0.114093885
0000e0 e8 44 2e be fb 0f 3b 3e bc 09 69 bd ce 3e 3f be
       -0.17018473 0.18267815 -0.05689405 -0.18676302
0000f0 a0 ba 5f 3e 88 cd 3b 3e b4 45 5c 3e 6c 8e 0b 3e
       0.21848536 0.18340123 0.21510965 0.13628548
000100 09 55 15 be ee 0d 66 bb 75 83 09 3e 32 46 3a be
       -0.1458322 -0.0035103518 0.13429053 -0.1819084
000110 2e 88 da bc b9 d2 bd bd 22 19 44 bc 81 bd e6 3d
       -0.026676264 -0.09268708 -0.011968883 0.11266614
000120 21 9f 8a 3d 16 25 9a 3e b1 a9 c9 bd 9d a4 1a 3e
       0.06768633 0.3010642 -0.09846819 0.15101857
000130 27 b8 eb bd 20 4f 40 3e 80 f6 09 be 50 97 1a be
       -0.11509734 0.18780184 -0.13472939 -0.15096784
000140 85 50 0f 3e da 8f a1 bd 8f 9f 66 bd 47 ae 77 bd
       0.1399556 -0.07888766 -0.05630451 -0.06046894
000150 7a 54 ad bd cb ba 11 be 85 e1 51 3e e8 9f b7 3e
       -0.08463378 -0.14231412 0.20496185 0.35864186
000160 69 87 50 3e 9d eb 99 bc 40 4d 3b be dd bd db 3d
       0.20364155 -0.018789107 -0.18291187 0.10729573
000170 84 f4 bf bd fa d6 c3 3b 5d 4f 5e 3e ed 37 fd bd
       -0.093728095 0.005976555 0.21709962 -0.123641826
000180 9c 61 1e bd 0d b1 fa bd f8 9d c9 bd 9f cf ca bc
       -0.038667306 -0.12240801 -0.09844583 -0.024757205
000190 e0 42 13 3b bf 0c ce bd d4 89 4f bd fc be ac bc
       0.002247028 -0.10061025 -0.050668553 -0.021087162
0001a0 3c 54 1c be 5f c8 40 3e 02 c4 fa 3c a2 98 4a 3e
       -0.15266508 0.18826436 0.030611042 0.19784787
0001b0 6d c5 7a be 7d 9d cf 3b a2 d7 e6 bc d3 08 cc bd
       -0.24489374 0.0063359127 -0.028178994 -0.099626206
0001c0 9b ae 34 3e e7 54 57 be d5 08 ac bc 94 2c de 3d
       0.17644732 -0.21028481 -0.021000305 0.10848346
0001d0 98 72 3c 3e bc bd 31 3e 5f bc 1a be dc bf a4 3d
       0.18403089 0.17357534 -0.1511092 0.08044407
0001e0 61 df 06 3d 92 1c 36 be ab 9c 72 be 90 79 01 be
       0.032927874 -0.17784336 -0.23692577 -0.12644029
0001f0 d5 38 76 3d f3 82 3e 3e 27 7a 00 3e 73 4c 2e 3e
       0.060112793 0.1860464 0.12546597 0.1702135
000200 22 d7 18 3e ca 32 3a 3e 55 c4 30 bd 8a bc 58 bd
       0.14925817 0.18183437 -0.043155987 -0.05291418
000210 6a ff c1 bd 4f d9 aa 3d 71 2a 9f bc fa a5 ca bd
       -0.094725445 0.083422296 -0.019429417 -0.09894939
000220 cd 29 02 3e 72 d5 a4 3d 30 c0 b6 bd fa e9 12 be
       0.12711258 0.08048524 -0.089233756 -0.14347067
000230 67 f0 35 be c3 d5 0c 3e 3a 66 68 3e d0 a0 93 3d
       -0.17767487 0.13753419 0.22695246 0.07208407
000240 55 ba 59 3e b0 56 0a be fa e4 24 3e be d6 83 bd
       0.21262486 -0.13509631 0.16102973 -0.06437443
000250 2a 83 6d bd 98 d1 1c 3e f5 42 91 bc a8 36 b9 bc
       -0.057986416 0.15314329 -0.017732123 -0.02260907
000260 91 f4 de 3d b8 e9 38 3e 82 0d 02 be 76 a7 81 3d
       0.10886491 0.18057907 -0.12700465 0.06330769
000270 d7 c6 30 bd df d5 4f 3e 8a 04 b1 3d 37 d7 86 bd
       -0.04315838 0.20296429 0.08643444 -0.06584018
000280 58 45 2a be fd 7c 34 be af 42 c9 bd 52 da 55 3e
       -0.16628015 -0.17625804 -0.09827172 0.20884064
000290 83 6f 3c 3e cd 02 06 be 9e f5 fd 3d 8f a4 a1 bd
       0.18401913 -0.13087006 0.124003634 -0.07892715
0002a0 57 2b 03 be 58 1e e2 3d 4e 0d 98 3b e1 ad d5 bd
       -0.12809502 0.11040944 0.004640258 -0.104335554
0002b0 29 8f 1a be 47 e2 59 be 9d 81 49 bd 05 84 2d 3e
       -0.15093674 -0.21277724 -0.049195874 0.16944893
0002c0 29 5e 16 be e9 02 d1 bd c7 92 10 3e 39 8f 0b be
       -0.14684357 -0.10205633 0.14118491 -0.13628854
0002d0 d2 56 c7 bd 01 57 4e 3e 73 86 25 bd fb 15 13 be
       -0.097333565 0.20150377 -0.040411424 -0.14363854
0002e0 7f aa fd bd 5d eb c3 bd c5 a3 49 3e e5 4f 64 bd
       -0.12386035 -0.09566376 0.1969138 -0.055740256
0002f0 9e ac 63 3e 75 32 9c bd bf 69 eb bd 58 8c e7 3c
       0.22233817 -0.076268114 -0.11494779 0.028265163
000300 c6 e7 65 bd 97 b8 47 3e af 3f a2 bd 5c 19 97 bd
       -0.05612924 0.19504009 -0.07922303 -0.07377884
000310 fb 57 c5 3d 40 1a a8 bb f2 a5 24 be 71 15 0b 3e
       0.096359216 -0.0051300824 -0.16078928 0.13582398
000320 cd a8 31 3c 27 ab 7f be 91 ad b9 3d 69 b3 40 be
       0.010843468 -0.24967633 0.09066308 -0.1881844
000330 62 0d df bd 73 fa 2d 3e 18 04 7e 3e 46 1e 85 bd
       -0.108912244 0.1699007 0.24806249 -0.06499915
000340 5c 23 04 3e 92 59 e0 bd 48 b9 1d 3e 30 71 bd 3c
       0.12904114 -0.10954584 0.1540271 0.023125261
000350 26 3d 6a 3d f4 c2 03 3d 6b ac 60 3e b7 c8 99 bc
       0.057187222 0.032168344 0.21940772 -0.018772466
000360 6b c6 23 be 2c 70 54 3e 6d 1d 75 3e 35 1f 25 be
       -0.15993659 0.20745915 0.23937006 -0.16125186
000370 ce 3a c8 3c d7 f2 73 3d a9 b1 0a 3e 9d 06 05 be
       0.024442103 0.059557762 0.13544334 -0.12990804
000380 60 b5 b8 bc 96 3f 84 be bd 22 da bd 8a b1 54 3e
       -0.022547424 -0.25829762 -0.10651157 0.20770851
000390 a8 41 ef bd 5a 5a 45 3e b7 03 3f 3e 27 be c4 bd
       -0.11682445 0.19272748 0.18653761 -0.09606581
0003a0 38 13 cc 3d 19 15 a2 3e d1 29 46 be 48 5e f9 3d
       0.09964603 0.3165672 -0.19351889 0.12176186
0003b0 32 aa e1 bd 0f d0 1b bd 00 6a be 39 61 d5 26 be
       -0.1101879 -0.038040217 0.000363186 -0.16292335
0003c0 99 48 a6 bd a1 fe 07 3d 0c 67 db bd dc 70 e3 bc
       -0.08119316 0.033201817 -0.10713014 -0.027763776
0003d0 c6 bb bb bd 04 01 bd bd f9 86 b8 bd 8a 46 61 3e
       -0.09166674 -0.09228709 -0.09010119 0.21999565
0003e0 e2 3f 3b bc 0d 58 5a be 4e 93 e4 bd 33 6c f9 3d
       -0.011428805 -0.21322651 -0.11160909 0.121788405
0003f0 0f af f5 bc 4a 7f 19 3e 8c 55 f3 bd 88 3b 3c be
       -0.029990701 0.14989963 -0.11881551 -0.18382084

fc2.bias f4 [10]
000000 bc 04 5a 3d 98 98 c3 ba 5b c9 be bd 5b 90 d4 3d
       0.05322717 -0.0014922796 -0.09315749 0.10379096
000010 6f e6 ab 3d 5d 2a a1 3d 84 a8 9a bd 9d 3d ba 3d
       0.08393561 0.07869408 -0.07551673 0.09093783
000020 9e e5 2a 3d b2 67 c7 3c
       0.041722886 0.024341438
