models/MNIST/LeNet/model.pth (torch_old, 258812 bytes, 12 tensors)

c1.c1.c1.weight f4 [6, 1, 5, 5]
0	0x3e4e9e15	0.20177491
1	0x3e49c108	0.19702542
2	0x3e845134	0.25843203
3	0x3d9589ef	0.07301699
4	0x3ea48b20	0.32137394
5	0x3d49ef83	0.04930068
6	0x3df3f94a	0.119127825
7	0x3dd5f91c	0.104479045
8	0x3e819dfd	0.25315848
9	0x3ca5664c	0.02019038
10	0x3d8d9e1f	0.06914925
11	0xbdf6d17d	-0.120516755
12	0xbe1d3528	-0.15352309
13	0xba2afb9d	-0.00065224787
14	0x3e307218	0.17231023
15	0x3d150c41	0.03638864
16	0xbe8638b2	-0.2621513
17	0x3e1d5099	0.15362777
18	0xbe5f8310	-0.2182734
19	0x3e135fc3	0.14391999
20	0xbe1efd76	-0.15526375
21	0xbe64be40	-0.223382
22	0xbe5d8ebc	-0.2163648
23	0x3ce83d28	0.028349474
24	0x3c3b31f0	0.01142548
25	0x3e1faf72	0.15594271
26	0xbe218f3a	-0.15777293
27	0xbd256986	-0.040383838
28	0x3e708b59	0.23490657
29	0x3e6cec70	0.23137069
30	0x3db9969c	0.090619296
31	0xbdef7cca	-0.116937235
32	0xbe2a4d2c	-0.16631001
33	0xbda4ce4e	-0.08047162
34	0x3e0eb779	0.13937177
35	0x3e605316	0.21906695
36	0x3c8348ee	0.016025987
37	0xbd76dfa4	-0.060271874
38	0x3d7bd1e1	0.061479453
39	0xbe4399a4	-0.19101578
40	0x3e09459e	0.13405463
41	0xbe4744af	-0.19459794
42	0xbe25eee1	-0.16204406
43	0xbde2e763	-0.1107929
44	0xbd1eec92	-0.03879983
45	0x3da48c1b	0.080345355
46	0x3e283cd1	0.1642945
47	0xbe697277	-0.22797571
48	0x3ccd14a1	0.02503425
49	0xbe3a7883	-0.18210034
50	0x3de6fa60	0.11278224
51	0x3e907a82	0.28218466
52	0x3e30c0bc	0.17261022
53	0xbe1d6796	-0.15371546
54	0xbe6f20b0	-0.23352313
55	0x3e6b98ab	0.23007457
56	0x3e8f5532	0.27994686
57	0xbdc43c24	-0.095817834
58	0xb9cee902	-0.00039464986
59	0xbea7db55	-0.32784525
60	0x3e412785	0.18862732
61	0x3eaad83a	0.33368093
62	0x3e5652b9	0.20929994
63	0xbe9e478b	-0.30913958
64	0xbeb3a2ba	-0.35085088
65	0x3e9d4194	0.30714095
66	0x3e82d661	0.25554183
67	0x3e846cf4	0.25864375
68	0xbd1c61ee	-0.03817933
69	0x3d61d520	0.055134892
70	0x3e9420be	0.2893123
71	0x3ebc6fb9	0.36803988
72	0x3e9b2194	0.30299056
73	0x3e34c05b	0.17651503
74	0x3e812883	0.2522622
75	0x3c0bd10d	0.008533728
76	0xbe3357fe	-0.17514035
77	0x3c9819f3	0.018567061
78	0x3a8e3ea1	0.0010852405
79	0x3d205288	0.039141208
80	0xbda40827	-0.080093674
81	0x3ceff9e9	0.029293971
82	0xbe7b2fcf	-0.24529956
83	0xbe1fe10c	-0.15613192
84	0xbdb23e90	-0.08703339
85	0xbe60be77	-0.21947657
86	0xbdb2a4d3	-0.08722844
87	0x3dcd3a87	0.10020929
88	0x3e384121	0.17993595
89	0x3e0f7750	0.14010358
90	0x3d7f51bd	0.06233381
91	0xbc9ef103	-0.019402033
92	0x3e0a7265	0.135202
93	0x3c7cae60	0.015422434
94	0xbe0cfcf4	-0.13768369
95	0x3d9ff932	0.07811202
96	0x3e8634ef	0.2621226
97	0x3e29a265	0.16565855
98	0x3dba099e	0.090838656
99	0xbd0b5d02	-0.034024246
100	0x3e16c071	0.14721848
101	0x3e7792ee	0.24177143
102	0x3e1b8f1d	0.15191312
103	0x3e89e0b9	0.26929262
104	0x3d6e9f68	0.05825749
105	0x3d9f3214	0.077732235
106	0x3caf9ba5	0.021436522
107	0x3d99ac11	0.07503522
108	0x3ea6bf36	0.32567757
109	0x3e8ea5a6	0.27860755
110	0xbe773cdf	-0.24144314
111	0x3c4aac77	0.01237022
112	0x3e9f40d1	0.31104138
113	0x3ec0edb4	0.37681353
114	0x3ef81385	0.48452392
115	0xbd9f7918	-0.07786769
116	0xbd905164	-0.07046774
117	0x3ec33a64	0.38130486
118	0x3f019a96	0.50626504
119	0x3e6c2b22	0.23063329
120	0xbce235d3	-0.027613556
121	0x3e4e38e3	0.20138888
122	0x3d9fe327	0.07806998
123	0x3da7822d	0.08179126
124	0x3e8c177b	0.27361664
125	0x3e0b5058	0.13604867
126	0xbdd9165e	-0.10599969
127	0xbe9580d4	-0.2919985
128	0xbeaf417f	-0.34229657
129	0xbe92d078	-0.28674674
130	0xbe26c057	-0.1628431
131	0xbe71a601	-0.23598482
132	0xbde574be	-0.112039074
133	0xbdc79d27	-0.09746771
134	0x3cc13425	0.023584435
135	0x3db7130d	0.089391805
136	0x3d9567b9	0.07295174
137	0x3e86552c	0.26236856
138	0x3e40ecbd	0.18840308
139	0x3e06c99d	0.13162847
140	0x3e9d09ba	0.30671483
141	0x3ec9002a	0.39257938
142	0x3d84cc8f	0.06484329
143	0x3ecafcd9	0.39646032
144	0x3ebca2ef	0.36843058
145	0x3e9ce616	0.30644292
146	0x3e59c14f	0.21265148
147	0x3d819f79	0.06329245
148	0xbdb23201	-0.08700944
149	0x3d46e57d	0.0485587

c1.c1.c1.bias f4 [6]
0	0x3e4661e0	0.19373274
1	0xbdb43f50	-0.088011384
2	0x3e1b2ad6	0.1515306
3	0xbd1d77a5	-0.03844418
4	0x3e1f8ae8	0.15580332
5	0x3d843042	0.06454517

c2_1.c2.c2.weight f4 [16, 6, 5, 5]
0	0xbd4b8242	-0.04968477
1	0xbda79af9	-0.081838556
2	0xbd32f480	-0.043690205
3	0x3c18be36	0.009322694
4	0x3cd12844	0.025531895
5	0x3d056354	0.03256543
6	0x3da8f6e8	0.08250219
7	0x3d335b93	0.043788504
8	0xbd77a0a0	-0.06045592
9	0xbd3d393d	-0.046197165
10	0xbd0a2850	-0.03372985
11	0xbd4c2ec0	-0.04984927
12	0x3d1ae4d8	0.0378159
13	0xbbe277be	-0.006911247
14	0x3da27be5	0.07933787
15	0xbb03ba59	-0.0020100086
16	0x3d3ac0b7	0.045593943
17	0xbd484543	-0.048894178
18	0x3d88f604	0.06687549
19	0xbd3e77a1	-0.046500806
20	0x3d68737a	0.056750752
21	0xbc819d6c	-0.015822135
22	0xbd521984	-0.051293865
23	0x3b94d395	0.004541824
24	0xbda6f0ba	-0.08151384
25	0x3cecc846	0.028904092
26	0xbd1291a6	-0.035783432
27	0xbc8b4427	-0.017000271
28	0xbc3e8758	-0.011628948
29	0xbcd4916b	-0.025948247
30	0x3d40ee4a	0.04710225
31	0x3d9f25a6	0.07770853
32	0x3d01c4fc	0.031682
33	0x3afa2e48	0.0019087279
34	0xbd4a11a5	-0.049333233
35	0x3d7b6b3b	0.06138156
36	0xbcd8fff2	-0.026489232
37	0xbd7a2c2d	-0.061077286
38	0x3d786e38	0.060651988
39	0xbd67452d	-0.056462456
40	0xbad7695a	-0.0016434595
41	0xbcc1e9de	-0.023671087
42	0x3d21a080	0.039459705
43	0xbd6e28ad	-0.05814426
44	0xbd4574f2	-0.04820723
45	0xbdaa5060	-0.083161116
46	0xbcaddd20	-0.021223605
47	0xbda306e6	-0.079603
48	0x3d3ee721	0.04660714
49	0x3d51edb6	0.05125209
50	0x3d0f84c6	0.035038732
51	0x3da52ef1	0.08065594
52	0xbcdd53ca	-0.027017493
53	0x3c2e2c10	0.0106306225
54	0x39d1f80e	0.00040048402
55	0xbda3c1a8	-0.079959214
56	0xbc6e5aa1	-0.014547975
57	0xbc628fbe	-0.013828216
58	0xbda28673	-0.079358004
59	0x3a86dd94	0.0010289424
60	0xbd62ccc7	-0.055371072
61	0xbce44388	-0.027864233
62	0xbcc150d3	-0.02359811
63	0xbcd08f98	-0.025459096
64	0x3a228fba	0.00062012265
65	0x3d418792	0.04724843
66	0x3da45a13	0.08024993
67	0xbd5d1c00	-0.05398178
68	0x3d57d4e6	0.05269327
69	0x3cba9878	0.02277778
70	0x3da8b3b3	0.082374
71	0x3da6d5d2	0.08146252
72	0x3d711145	0.05885436
73	0x3d28ccab	0.04121081
74	0x3cd1d443	0.02561391
75	0xbd061787	-0.03273728
76	0xbd17ff04	-0.037108436
77	0xbd524d24	-0.0513431
78	0xbcea76bb	-0.028621068
79	0x3d97d0a9	0.07412846
80	0xbd71b25c	-0.059007987
81	0xbd8d54d6	-0.06900947
82	0x3d124f49	0.035720143
83	0x3d00808b	0.031372588
84	0x3d400840	0.046882868
85	0xbd676ad6	-0.05649837
86	0x3c5cbdd1	0.01347299
87	0xbcf812b2	-0.030282352
88	0xbd8936f1	-0.06699932
89	0x3d1847b2	0.03717775
90	0xbcb01da0	-0.021498501
91	0xbd1b3385	-0.03789093
92	0x3c4ba3d2	0.0124291945
93	0xbd10511b	-0.0352336
94	0x3c20d25b	0.009815778
95	0x3d75461d	0.05988132
96	0x3d1e09fc	0.03858374
97	0xbc9f61d3	-0.019455826
98	0x3d7b8842	0.061409242
99	0xbd83f702	-0.064435974
100	0xbcafecd7	-0.021475239
101	0x3d1d8f22	0.03846658
102	0x3dc7e461	0.09760357
103	0x3d0616a6	0.032736443
104	0xb9f89f9b	-0.0004742116
105	0x3c41eff4	0.011836994
106	0x3bee5216	0.007272969
107	0x3bf3e627	0.007443208
108	0xbd62cbad	-0.05537002
109	0x3d644327	0.055728104
110	0xbdf2ba27	-0.11851912
111	0x3ce45501	0.027872564
112	0xbd7447ae	-0.05963867
113	0xbd88b380	-0.06674862
114	0xbc84d60a	-0.016215343
115	0xbdd0fcfc	-0.10204503
116	0xbd64acd1	-0.055828873
117	0x3cb3b48e	0.021936681
118	0xbdcf10dd	-0.10110638
119	0x3d609adc	0.054835185
120	0x3d43165e	0.047628753
121	0x3dd98334	0.10620728
122	0x3bc335f0	0.0059573576
123	0xbd1c3159	-0.038133
124	0xbd9a687e	-0.075394616
125	0x3c93d6c8	0.018046752
126	0x3d28d05d	0.041214336
127	0x3d9e527f	0.07730579
128	0xbd2ce78a	-0.042213
129	0x3d303136	0.04301568
130	0xbb9ccd35	-0.004785205
131	0x3cf281b3	0.029602861
132	0xbcf13834	-0.029445745
133	0xbd84831e	-0.06470321
134	0xbda740dd	-0.081666686
135	0x3c6a5780	0.014303088
136	0xbd6fc957	-0.058541622
137	0xbd8fbc1d	-0.07018302
138	0xbd6c49c7	-0.057687547
139	0x3c067f07	0.008208997
140	0xbb3257f6	-0.0027213073
141	0x3d49a0b5	0.049225528
142	0xbbf670bc	-0.007520763
143	0xbd645cb9	-0.05575249
144	0xbd9a4bf8	-0.07534021
145	0x3da12cdb	0.078698836
146	0x3d9931b7	0.074801855
147	0x3d8cdf2d	0.06878505
148	0xbd2c89a1	-0.04212344
149	0xbc9ae2cf	-0.018906979
150	0xbd8dc579	-0.069224305
151	0xbbb98155	-0.0056611695
152	0xbd9c768b	-0.07639798
153	0xbdaf83eb	-0.08570083
154	0xbda723a2	-0.08161093
155	0xbd89a577	-0.06721013
156	0xbd8b6d5b	-0.06807967
157	0xbd7623b5	-0.060092647
158	0x3d9d8fef	0.07693469
159	0x3c56d427	0.0131121045
160	0x3dd072d3	0.10178151
161	0x3d17eaf6	0.03708931
162	0x3d08ab64	0.033366576
163	0x3dae81b3	0.08520832
164	0xbd60de6f	-0.05489963
165	0x3d56b066	0.05241432
166	0x3ddf9a98	0.10918158
167	0xbcdeab6f	-0.027181355
168	0xbd552ef8	-0.052046746
169	0xbd1b4de1	-0.037916068
170	0x3d6a167c	0.05715035
171	0x3d823802	0.06358339
172	0x3d0b69c4	0.034036413
173	0xbd56ddf8	-0.05245778
174	0xbd25de84	-0.04049541
175	0xbda17735	-0.07884065
176	0x3be87e5b	0.007095141
177	0x3c013b9a	0.007887745
178	0xbc2a45ae	-0.0103925895
179	0x3d4db87b	0.050224762
180	0x3d0e49e6	0.034738444
181	0xbdbc15fb	-0.0918388
182	0x3d6a65c8	0.057225972
183	0x3d872be0	0.06600165
184	0x3d9d1073	0.07669153
185	0x3d96c4eb	0.07361778
186	0xbc8c9fdc	-0.01716607
187	0x3d86d6b2	0.06583919
188	0x3d427350	0.04747325
189	0x3cf29981	0.029614212
190	0xbc120c09	-0.008914002
191	0x3ba463fb	0.0050168014
192	0xbce7b057	-0.028282328
193	0x3d057c9f	0.03258955
194	0xbd5bb598	-0.05363998
195	0x3d1c88e4	0.038216487
196	0x3d85e70d	0.0653821
197	0x3d794fad	0.060867
198	0x3d667cb1	0.05627126
199	0xbb2f22c6	-0.0026723607
200	0x3d31ec21	0.04343808
201	0x3d2f42d6	0.04278835
202	0x3c860d7f	0.016363857
203	0xbd430b2b	-0.047618072
204	0xbda6c702	-0.081434265
205	0x3d46357e	0.048390858
206	0x3dbdf6e7	0.092756085
207	0x3bf01ee1	0.0073279
208	0x3d4012b8	0.04689285
209	0xbd063492	-0.03276498
210	0xbc78a245	-0.015175407
211	0x3c5985d4	0.013276536
212	0xbd3274e8	-0.04356852
213	0x3cd85f77	0.026412709
214	0xbcb3fd3a	-0.021971334
215	0xbd8911dd	-0.0669286
216	0xbd32ff4a	-0.043700494
217	0x3d44da4b	0.048059743
218	0x3d65161d	0.055929292
219	0xbd1fddc3	-0.039029848
220	0x3d41cb22	0.047312863
221	0xbd6e3884	-0.058159366
222	0x3d13ed98	0.03611526
223	0x3d87416b	0.06604274
224	0xbb0ca48f	-0.002146039
225	0xbc0b7a43	-0.008513036
226	0x3d22fb2a	0.03979031
227	0x3dbc6261	0.09198452
228	0xbbff4318	-0.0077899806
229	0x3d539d27	0.051663544
230	0xbcd86acb	-0.02641811
231	0xbd6fc81b	-0.058540445
232	0x3d1c4e8e	0.038160853
233	0x3d3e6ea0	0.04649222
234	0xbd9dade7	-0.07699185
235	0xbd935249	-0.07193429
236	0xbd8a631b	-0.06757184
237	0xbbc2926c	-0.005937865
238	0xbd95d4f2	-0.07316007
239	0xbd2673a6	-0.040637635
240	0xbdbd8b73	-0.092551135
241	0x3cc146b0	0.023593277
242	0x3d0343e7	0.03204718
243	0xbd2b3ce1	-0.041806106
244	0x3d5c4331	0.053775016
245	0x3cc54e80	0.024085283
246	0xbd7ad8e6	-0.061242007
247	0x3da698de	0.08134626
248	0x3d8bd3b9	0.06827492
249	0x3bd6bf4d	0.0065535665
250	0xbd730259	-0.05932841
251	0xbddf8272	-0.10913552
252	0x396f9b1b	0.00022850597
253	0x3d85b8f1	0.065294154
254	0xbd71d02c	-0.05903642
255	0xbd14e02d	-0.036346603

c2_1.c2.c2.bias f4 [16]
0	0x3d864b40	0.065573215
1	0xbd636873	-0.055519532
2	0xbc013182	-0.007885339
3	0xbd3b5cd2	-0.045742817
4	0x3d784e41	0.060621504
5	0x3d408d7d	0.047009934
6	0x3aad4d03	0.0013221804
7	0xbc0fb11c	-0.0087702535
8	0x3bf3711a	0.0074292542
9	0xbc1a6346	-0.009423083
10	0xbd0cb3f5	-0.034351308
11	0xbd8a9c61	-0.06768108
12	0xbc78c765	-0.015184258
13	0x3ce1ac46	0.027547967
14	0x3c68de1e	0.014213113
15	0xbcb1ca07	-0.02170278

c2_2.c2.c2.weight f4 [16, 6, 5, 5]
0	0xbd1e4d16	-0.038647734
1	0x3d8e87cd	0.06959496
2	0xb93f2c00	-0.0001823157
3	0xbb589aaa	-0.0033051171
4	0x3c78fe1d	0.015197304
5	0xbc8cc25f	-0.017182527
6	0x3d5b8bba	0.05360005
7	0x3cd8e725	0.026477406
8	0xbc816472	-0.015794966
9	0xbd8b2b58	-0.067953765
10	0xbd14d2ea	-0.036333956
11	0x3d3df7c5	0.04637887
12	0x3da14e9a	0.0787632
13	0x3c0d0070	0.008606061
14	0x3d31d48e	0.0434156
15	0x3d486745	0.04892661
16	0x3ce13be1	0.027494373
17	0x3d8debc2	0.06929733
18	0x3d571894	0.052513674
19	0xbd22de02	-0.039762504
20	0xbce2518a	-0.027626771
21	0xbc2df954	-0.0106185265
22	0x3d455542	0.04817701
23	0xbd0977cb	-0.03356151
24	0x3d194e76	0.03742834
25	0xbbc7630e	-0.0060848063
26	0x3c338472	0.01095687
27	0x3d8fb00e	0.07016002
28	0xbc29d381	-0.010365368
29	0xbd1d3727	-0.038382675
30	0xbb9b0994	-0.0047313664
31	0x3d65fc5d	0.056148876
32	0x3da25702	0.07926752
33	0x3d9704c6	0.07373957
34	0x3d098ee0	0.03358352
35	0x3cdb7bc5	0.026792416
36	0x3cd03dc2	0.025420073
37	0xbce8f27d	-0.02843594
38	0x3da437eb	0.08018478
39	0x3c38faac	0.011290234
40	0x3a028b30	0.0004979847
41	0xbd30c7ba	-0.043159224
42	0xbd1f5287	-0.038897064
43	0x3d304261	0.043032054
44	0xbc8132f8	-0.015771374
45	0x3d2fe637	0.04294416
46	0x3cf6f4d4	0.03014604
47	0x3c99f9b7	0.018795831
48	0xbd8f209c	-0.069886416
49	0xbda31779	-0.079634614
50	0x3ce1d152	0.027565632
51	0xbcbb843f	-0.022890208
52	0x3dc83aab	0.09776815
53	0x3d6085e5	0.05481519
54	0xbcf3474f	-0.029697089
55	0xbd34f605	-0.044179935
56	0xbd61e27a	-0.055147626
57	0x3d74950f	0.059712466
58	0xbd3a8025	-0.045532364
59	0x3bcc8316	0.0062412126
60	0x3d4047e5	0.046943564
61	0xbdd0f45a	-0.10202856
62	0xbd229c3d	-0.03969978
63	0xbc5f2c55	-0.013621409
64	0xbc444afc	-0.011980768
65	0xbd5a3732	-0.053275295
66	0x3d2e887d	0.042610634
67	0xbd642cdf	-0.055706855
68	0xbd765671	-0.06014103
69	0xbd86ad38	-0.065760076
70	0x3961e007	0.00021541129
71	0x3c42b6f5	0.011884441
72	0x3d76ea75	0.06028219
73	0xbccc034c	-0.024903916
74	0x3cb05fb5	0.021530012
75	0x3d86d1e1	0.06583
76	0xbc374fb8	-0.01118844
77	0x3d8c7975	0.068591036
78	0x3d8d45c5	0.06898073
79	0x3d039fda	0.03213487
80	0x3d978267	0.07397919
81	0xbd7b2f0c	-0.061324164
82	0xbd6a7828	-0.057243496
83	0x3da286ba	0.07935853
84	0x3da4def7	0.0805034
85	0x3c69d586	0.014272099
86	0x3d11cfd4	0.03559859
87	0xbd20a1c3	-0.039216768
88	0x3b820d5f	0.003968879
89	0xbbadd47c	-0.005304871
90	0xbd87c251	-0.0662886
91	0x3d04abea	0.032390513
92	0x3d87ab89	0.066245146
93	0xbd65c3a2	-0.056094773
94	0xbd899cbc	-0.06719348
95	0x3d3e522d	0.046465088
96	0xbc091955	-0.008367856
97	0xbcdf2083	-0.027237182
98	0x3bd03040	0.006353408
99	0x3db3f89a	0.08787651
100	0x3da59fe4	0.08087137
101	0xbbca48f2	-0.0061732465
102	0xbd495bb1	-0.04915971
103	0xbd3834db	-0.044972282
104	0xbda7ceac	-0.081937164
105	0x3c2420e9	0.010017612
106	0x3c421ed9	0.011848175
107	0xbd07a398	-0.033115
108	0x3d22fc01	0.03979111
109	0x3d8c46d3	0.06849446
110	0xbd33ccae	-0.04389637
111	0x3b40aa49	0.0029398373
112	0x3d7b0408	0.06128314
113	0x3d3eb430	0.04655856
114	0x3c1f9b5c	0.00974163
115	0x39577b6c	0.00020549976
116	0xbdfb7399	-0.12277908
117	0x3c63b12e	0.013897223
118	0xbc4fcdf5	-0.012683381
119	0xbd3fee16	-0.046857916
120	0x3af8a370	0.0018969607
121	0xbdb42116	-0.08795373
122	0xbd864413	-0.06555953
123	0xbd5d2d27	-0.05399814
124	0x3d2f43e8	0.04278937
125	0xbd814ddf	-0.06313681
126	0xbcdcff59	-0.026977228
127	0x3da97de2	0.08275963
128	0x3d8f49d5	0.06996504
129	0x3d3c94a9	0.04604021
130	0x3d19ca05	0.037546176
131	0xbc899775	-0.016795853
132	0x3dfd748f	0.123757474
133	0x3dceb130	0.100923896
134	0x3ca2337a	0.019799937
135	0xbb189fd4	-0.0023288624
136	0x3d0616b8	0.03273651
137	0x3d1fb756	0.038993202
138	0xbd837ce4	-0.06420305
139	0xbd9a9115	-0.075472035
140	0x3d73571d	0.05940925
141	0xbd7aba2f	-0.061212715
142	0xbd0c2f5b	-0.03422485
143	0x3d9cbd1b	0.076532565
144	0xbc809f9c	-0.015701108
145	0x3db0c9a7	0.08632212
146	0x3c448ebe	0.011996923
147	0x3cfd4302	0.03091574
148	0xbb7dad9b	-0.0038708213
149	0x3d7cd97a	0.06173084
150	0x3d81c19b	0.063357554
151	0xbd764452	-0.06012375
152	0xbcf6c15b	-0.030121496
153	0xbce216ab	-0.0275987
154	0x3d16f24a	0.03685216
155	0xbd71e3c1	-0.059055094
156	0x3d5d3849	0.054008756
157	0x3cc9dad4	0.024640478
158	0x3c6b7791	0.014371769
159	0x3db9ce22	0.0907252
160	0x3d58821b	0.052858453
161	0x3bd124a8	0.0063825436
162	0x3c9f986c	0.01948186
163	0x3d2db4fe	0.042408936
164	0x3d513c19	0.051082704
165	0x3c609534	0.013707448
166	0xbd685791	-0.056724135
167	0x3bc49131	0.0059987535
168	0xbc27af6d	-0.010234696
169	0xbd42259f	-0.04739916
170	0xbda2e3b9	-0.07953591
171	0xbc1a504b	-0.009418557
172	0x3ce61dc7	0.02809037
173	0xbd9f0686	-0.07764916
174	0xbcc73ec0	-0.024321914
175	0xbce9409c	-0.028473191
176	0xbd2765cc	-0.040868565
177	0x3d4c0091	0.049805228
178	0x3d5c88e2	0.05384148
179	0xbc80475c	-0.015659027
180	0xbc7582b5	-0.014984776
181	0x3d2589a2	0.04041446
182	0x3d0434e2	0.032276995
183	0x3a3abb40	0.00071232393
184	0xbd170d87	-0.036878135
185	0xbd773aad	-0.060358692
186	0xbd74d41a	-0.05977259
187	0x3bcd8d89	0.006272976
188	0xbcd21f17	-0.02564959
189	0x3d7c702f	0.061630424
190	0xbb03f8d9	-0.0020137338
191	0x3d0c5139	0.034257147
192	0xbd6bd51d	-0.057576288
193	0x3cd257bf	0.025676606
194	0x3d3e27f0	0.046424806
195	0xbd05fd8a	-0.032712497
196	0x3da64923	0.081194185
197	0x3c387c7a	0.011260146
198	0xbda5bc85	-0.08092598
199	0x3d1ac69a	0.037787057
200	0x3da99511	0.08280385
201	0x3d07d175	0.03315874
202	0xbc907058	-0.017631695
203	0xbb2ec065	-0.002666497
204	0xbd7be5c8	-0.061498433
205	0xbd068005	-0.032836933
206	0xbce9fe60	-0.028563678
207	0xbd2daab5	-0.042399127
208	0x3da8f17b	0.08249184
209	0xbd0e3823	-0.034721505
210	0xbc0e9c1b	-0.008704211
211	0xbd9ef6fa	-0.07761951
212	0xbd22f086	-0.039780162
213	0x3d938c95	0.07204548
214	0xbcd59a3e	-0.026074525
215	0x3d0feb12	0.03513629
216	0xbdb4e67f	-0.08833026
217	0xbd9785fd	-0.07398603
218	0xbd93b4a5	-0.072121896
219	0xbc97ce1a	-0.018530894
220	0x3d77521c	0.06038104
221	0xbd2f4d3f	-0.042798277
222	0xbd5adfde	-0.053436153
223	0xbc976b20	-0.018483698
224	0x3cc3a4b7	0.023882253
225	0x3d3c0028	0.045898587
226	0xbc7ca339	-0.015419775
227	0xba09586e	-0.00052393123
228	0x3d919256	0.071079895
229	0x3b7e52f4	0.0038806768
230	0xbd97fa1b	-0.07420751
231	0x3ca27565	0.019831369
232	0x3c116019	0.008873009
233	0xbd8135b6	-0.06309073
234	0xbcc87910	-0.02447179
235	0xbd81ebbf	-0.06343793
236	0x3d34f4e8	0.044178873
237	0x3ce8a4ce	0.028398897
238	0x3d3f26ff	0.04666805
239	0x3d004a40	0.03132081
240	0x3d880381	0.06641293
241	0x3d59c3fa	0.053165413
242	0x3c1e1b83	0.009650114
243	0x3d1fca86	0.0390115
244	0xbd87731d	-0.06613753
245	0x3d2b25be	0.04178404
246	0x3d2dd7f9	0.042442296
247	0x3d9bf21e	0.076145396
248	0x3c91d1a9	0.017800169
249	0xbcec8d7a	-0.028876055
250	0xbd178691	-0.036993567
251	0x3d1b1295	0.037859518
252	0xbd04cf49	-0.032424245
253	0x3d6ff5cd	0.058584023
254	0x3ca09d3f	0.01960623
255	0x3d4caf08	0.04997161

c2_2.c2.c2.bias f4 [16]
0	0xba533dd9	-0.0008058227
1	0xbd0595e5	-0.032613654
2	0x3d34fa23	0.04418386
3	0xbd0d55e3	-0.034505736
4	0x3d0115c5	0.0315149
5	0x3d60b029	0.0548555
6	0x3d07870c	0.033087775
7	0xbd527cda	-0.0513886
8	0x3d99fde2	0.075191274
9	0x3db3ee00	0.08785629
10	0x3b3419de	0.0027481238
11	0x3d0aae2a	0.033857502
12	0x3d893494	0.066994816
13	0x3d84b004	0.06478885
14	0xbd5f9e6f	-0.054594453
15	0x3ba7c84f	0.005120314

c3.c3.c3.weight f4 [120, 16, 5, 5]
0	0x3d215be3	0.03939427
1	0x3cec4886	0.028843176
2	0xbd649f81	-0.055816177
3	0xbbba87ed	-0.005692473
4	0xbc28008b	-0.010254036
5	0x3c66c61b	0.014085318
6	0x3ccc0c08	0.02490808
7	0xbd266fc9	-0.04063395
8	0xbb437f51	-0.0029830525
9	0x3ce01350	0.027352959
10	0xbd0bb91c	-0.03411208
11	0xbc738ddf	-0.014865368
12	0xbc707f2b	-0.014678757
13	0xbd08ae80	-0.03336954
14	0x3d06dcd2	0.032925434
15	0xbaf02efd	-0.001832455
16	0x3d0a9587	0.033834007
17	0x3d66335b	0.05620132
18	0x3cef46c9	0.029208558
19	0xbd855b5c	-0.06511566
20	0xbcfdd5ad	-0.030985678
21	0xbc5eef01	-0.013606788
22	0xbc56bd0b	-0.013106595
23	0xbcfe2c16	-0.031026881
24	0x3cade8a3	0.021229094
25	0x3b80dfbf	0.0039329226
26	0xbc3dd60d	-0.011586678
27	0x3c1eba67	0.0096879965
28	0xbd60885a	-0.054817535
29	0xbc2c67ca	-0.010522792
30	0x3c504d28	0.012713708
31	0x3bb5099a	0.0055248262
32	0x3c9745ec	0.018465959
33	0x3d3851b5	0.044999797
34	0x3c9c1b04	0.01905585
35	0xbbe9f51b	-0.0071398146
36	0x3cad5ebc	0.021163337
37	0xbbd1f3fd	-0.0064072595
38	0x3d206e24	0.03916754
39	0x3ce3f962	0.027828876
40	0xbd67d898	-0.056603044
41	0xbc5e4b5d	-0.013567773
42	0x3d1df2e0	0.0385617
43	0x3d4dd99d	0.05025636
44	0x3cd865a9	0.026415663
45	0x3b274766	0.0025524735
46	0xbc923178	-0.017845854
47	0x3c41791a	0.011808658
48	0x3d5882a2	0.052858956
49	0xbd593de9	-0.053037558
50	0x3ca4c183	0.020111805
51	0x3c6c17b3	0.014409947
52	0xbd021f51	-0.031768147
53	0xbd19a56c	-0.037511274
54	0xbbb802bb	-0.00561556
55	0xbca27086	-0.019829046
56	0x3d0c21e0	0.034211993
57	0x3c762332	0.01502304
58	0x3d35eb3f	0.0444138
59	0xbc71ff44	-0.014770333
60	0xbcc73d0f	-0.024321107
61	0x3d495d20	0.049161077
62	0xbb28bcdb	-0.0025747332
63	0x3d1ed80b	0.038780253
64	0x3d40404a	0.04693631
65	0xbd2e4f0c	-0.042555854
66	0xbc38d852	-0.0112820435
67	0x3ba3460e	0.0049827164
68	0x3c2f770c	0.010709535
69	0xbcc08115	-0.023499051
70	0x3b651ac4	0.003495858
71	0xbd276762	-0.040870078
72	0x3d32ca49	0.043649945
73	0xbc2085db	-0.009797539
74	0xb89296be	-6.9899004e-05
75	0x3c3f8355	0.011689027
76	0xbd39cf04	-0.04536344
77	0x3c3ff906	0.011717087
78	0xbc2fff58	-0.010742031
79	0x3d0bddc5	0.034147043
80	0x3d68d302	0.056841858
81	0x3cf33259	0.029687094
82	0xbcc06dc9	-0.02348985
83	0xbd0029bd	-0.031289805
84	0x3d57b7b3	0.052665424
85	0x3d2d41df	0.042299148
86	0x3d1e0c27	0.038585808
87	0xbcb1493f	-0.021641372
88	0x3b8435e2	0.0040347436
89	0x3d32e7e8	0.043678194
90	0x3d61496c	0.05500166
91	0x3db12306	0.08649258
92	0xbd219338	-0.03944704
93	0xbd470e41	-0.048597578
94	0x3c9818a1	0.018566431
95	0xbc9cc87b	-0.019138565
96	0xbd49bf3d	-0.049254645
97	0x3bb1e12c	0.005428454
98	0xbd7d3ae0	-0.061823726
99	0x3d13eebf	0.036116358
100	0xbcbc0d67	-0.02295561
101	0xbd314fdf	-0.04328906
102	0xbc985b72	-0.018598292
103	0xbd72b8fe	-0.059258454
104	0x3ba43b24	0.005011933
105	0xbd2f0646	-0.042730592
106	0x3b90bf3c	0.004417328
107	0xbd083316	-0.033251844
108	0xbc3366af	-0.010949775
109	0xbcc04073	-0.023468232
110	0xbc888c62	-0.016668502
111	0x3b441631	0.0029920454
112	0xbc03aaa1	-0.008036287
113	0xbc40677a	-0.011743421
114	0x3d37bfb4	0.044860557
115	0x3d60c066	0.054870985
116	0xbd1048ed	-0.035225797
117	0x3c8ee034	0.017440893
118	0xbd3e7418	-0.046497434
119	0x3be3e2ff	0.0069545503
120	0xbd49b7ff	-0.049247738
121	0xbcb22658	-0.0217468
122	0xbd178f42	-0.037001856
123	0x3d3fb94f	0.046807583
124	0xbb1050ac	-0.002202074
125	0xbaa739c8	-0.0012758309
126	0x3a389400	0.00070410967
127	0xbd55f18f	-0.05223232
128	0xbbe895dd	-0.007097943
129	0x3d1e12ae	0.038592033
130	0xbbf99b96	-0.0076174242
131	0x3bc405a9	0.00598212
132	0xbbc4b4d4	-0.0060030017
133	0x3cdd85c9	0.027041333
134	0x3c82506c	0.015907489
135	0xbc71af40	-0.0147512555
136	0x3d1c6a10	0.038187087
137	0x3d124cfd	0.035717953
138	0x3cefc271	0.029267522
139	0x3d17b00f	0.037033137
140	0x3d6e8cac	0.058239624
141	0x3d2d4dc8	0.042310506
142	0x3d03ab57	0.032145824
143	0xbad72462	-0.0016414041
144	0xbcf12a18	-0.029439017
145	0xbd0db313	-0.034594607
146	0x3d0ded7a	0.034650303
147	0xbc812219	-0.01576333
148	0xbd924718	-0.07142466
149	0xbb6f8a82	-0.0036551063
150	0x3d09ef47	0.03367546
151	0xbd0e4ea6	-0.034742974
152	0x3c639026	0.013889348
153	0x3d0aa87e	0.033852093
154	0x3d2ad95f	0.041711207
155	0xbbb7d088	-0.0056095757
156	0x3cd81708	0.02637817
157	0x3d47db43	0.04879309
158	0x3c49ef09	0.012325057
159	0xbd04311e	-0.032273404
160	0x3ce1a4e0	0.027544439
161	0x3b5b3a86	0.003345163
162	0xbc9dad09	-0.019247549
163	0x3d0355ce	0.03206425
164	0xbd067640	-0.032827616
165	0xbbcc7885	-0.006239953
166	0x3c8e2439	0.017351257
167	0x3d0bc471	0.034122888
168	0x3b9ce94a	0.0047885524
169	0x3b4dbcfe	0.0031393166
170	0xbce37b12	-0.027768645
171	0xbd8623ff	-0.065498345
172	0xbcd02fc4	-0.025413401
173	0x3d759ccf	0.059963997
174	0x3b7c46ef	0.0038494428
175	0x3d2e5a5e	0.04256665
176	0x3d2e1789	0.042502914
177	0x3d341918	0.043969244
178	0x3d1ad43a	0.03780005
179	0x3d1d8bd4	0.03846343
180	0x3d1c80c1	0.038208727
181	0xbbf5df66	-0.007503438
182	0x3cb38a90	0.021916658
183	0xbd5249fb	-0.051340085
184	0x3d320850	0.04346496
185	0xbd87043e	-0.06592606
186	0xbd917458	-0.07102269
187	0xbd5cf202	-0.053941734
188	0xbd1944ae	-0.037419014
189	0x3cf262d6	0.029588144
190	0xbad26d55	-0.0016054312
191	0x3d7443ec	0.059635088
192	0x3d62eefd	0.0554037
193	0x3cb47770	0.022029608
194	0x3d07136e	0.032977514
195	0xbc15178b	-0.009099851
196	0x3d4ee99d	0.05051576
197	0x3c68f416	0.014218351
198	0x3c32a3ba	0.010903293
199	0x3d10cd58	0.03535208
200	0x3c0c6ace	0.008570386
201	0x3d16d61e	0.03682529
202	0x3ac35da2	0.0014905224
203	0x3d2a15b5	0.041524608
204	0x3cfcdf5d	0.030868227
205	0xbbfe2bb9	-0.007756677
206	0x3cab46ad	0.020907724
207	0xbc8a7f46	-0.016906392
208	0x3d8243e6	0.06360607
209	0x3d06563e	0.03279709
210	0x3d8fd3b0	0.07022798
211	0x3d817295	0.06320683
212	0x3c6f4277	0.014603249
213	0xbbeebf88	-0.007286016
214	0x3b5ee8a4	0.0034013176
215	0x3d18d670	0.03731388
216	0xbd2505a8	-0.040288597
217	0xbd6465be	-0.05576109
218	0xbcd074cc	-0.025446318
219	0x3c6509f3	0.013979423
220	0xbc64ac7a	-0.013957137
221	0x3b5b3c54	0.0033452706
222	0x3d4cb8a0	0.04998076
223	0xbc15fa76	-0.009153953
224	0x3a668851	0.00087941164
225	0x3d0521fb	0.03250311
226	0x3cd8e54c	0.026476525
227	0x3ccae604	0.024767883
228	0xbd45408e	-0.048157267
229	0xbc24d694	-0.010060925
230	0xbacbc11c	-0.0015545222
231	0x3cee0783	0.029056316
232	0x3d31a3e7	0.0433692
233	0x3d072ba2	0.033000596
234	0x3c68f4a7	0.014218486
235	0x3d56382f	0.052299675
236	0xbc91d818	-0.017803237
237	0xbcbed060	-0.02329272
238	0x3c2ffda7	0.010741628
239	0xbd1f7508	-0.03892997
240	0xbc82bd34	-0.01595936
241	0xbcfdbb2e	-0.030973043
242	0x3d6feda4	0.05857624
243	0xbc5e6372	-0.013573514
244	0xbc5a9674	-0.013341535
245	0x3c555452	0.013020592
246	0x3d469a3f	0.048486944
247	0x3d496581	0.049169067
248	0xbbe78e89	-0.007066552
249	0xbd01027b	-0.031496506
250	0x3bd81b56	0.0065950556
251	0xbc9e9da3	-0.019362276
252	0xbcacec6d	-0.02110883
253	0x3c6bc14b	0.014389346
254	0xbd2f55e8	-0.042806536
255	0xbcab0ef6	-0.020881157

c3.c3.c3.bias f4 [120]
0	0x3d2c9c4e	0.04214125
1	0x3cb13a50	0.02163425
2	0x3ce26502	0.027636055
3	0x3ce024bf	0.027361272
4	0x3d245615	0.040121157
5	0x3d34f04d	0.04417448
6	0x3d0cdb70	0.03438896
7	0x3b878b64	0.0041364897
8	0xbc3cd175	-0.011524548
9	0xbc2bfe5f	-0.0104976585
10	0xba1d9bd0	-0.00060122926
11	0x3d460bfb	0.04835127
12	0xbb89aac8	-0.004201267
13	0xbc57c6d7	-0.013169966
14	0xbd0c1d10	-0.034207404
15	0xbd17579f	-0.036948796
16	0xbce5bc89	-0.028044002
17	0x399eb302	0.0003026948
18	0xbacee8ed	-0.001578597
19	0x3cc44554	0.02395884
20	0xbc32c0a9	-0.010910192
21	0xbc81c63b	-0.015841594
22	0x3c00b999	0.00785675
23	0xbce6b9ff	-0.028164862
24	0xbd15ae46	-0.036543153
25	0xbd0979d6	-0.033563457
26	0xbd2ea3aa	-0.04263655
27	0xbbf6796d	-0.0075217993
28	0xbd01d793	-0.03169973
29	0xba7364de	-0.0009284745
30	0xb97009eb	-0.00022891878
31	0xbcfbf9f6	-0.03075884
32	0x3d14a2c3	0.036288034
33	0x3b7db24e	0.0038711014
34	0x3ce61491	0.028085979
35	0xbceec5b2	-0.029147003
36	0x3d18a0c8	0.037262708
37	0x3cd4239b	0.025895884
38	0xbc820baf	-0.015874712
39	0x3bab8ef1	0.005235546
40	0xbcaa3140	-0.020775437
41	0x3c38d5a3	0.011281404
42	0xbca1c4df	-0.019747196
43	0xbceb3313	-0.028710878
44	0x3ce767dd	0.028247768
45	0xba8afeb9	-0.0010604478
46	0x3d0dcaa5	0.034617085
47	0xbd2be2e5	-0.04196443
48	0xbcbcaff9	-0.023033129
49	0x3c97e78a	0.018543024
50	0xbc17d6dc	-0.009267535
51	0x3cdbc84e	0.026828911
52	0x3cba96cf	0.02277699
53	0xbcee0a65	-0.02905769
54	0x3d37e690	0.044897616
55	0xbd308025	-0.04309096
56	0xbc5eb70c	-0.013593446
57	0xbb8c8d07	-0.0042892727
58	0x3d172f14	0.03691013
59	0xbcd7fa7c	-0.026364557
60	0xbd49cbb7	-0.049266543
61	0xbd491d70	-0.04910034
62	0xbc87f77c	-0.016597502
63	0xbd0ffe29	-0.035154495
64	0x3ad54081	0.0016269834
65	0x3cc6b537	0.024256332
66	0x3d354a7e	0.044260494
67	0xbc871632	-0.016490076
68	0xbcad8528	-0.021181658
69	0xbc6adcf1	-0.014334903
70	0x3c24c257	0.0100561
71	0x3cc4957a	0.023997057
72	0xbb11fa36	-0.0022274381
73	0xbd47ab17	-0.04874715
74	0x3d2a5bab	0.041591328
75	0x3cce4ac4	0.025182135
76	0x3c89b6a5	0.016810725
77	0xbcbc8242	-0.02301133
78	0xbaa6a036	-0.0012712542
79	0x3bd4c427	0.0064931097
80	0x3cd2c895	0.02573041
81	0xbced9151	-0.028999956
82	0x3a4d9f44	0.0007843862
83	0x3d0e7330	0.03477782
84	0x3d07eaf8	0.033183068
85	0xbcc53bb6	-0.024076324
86	0xbd0df0ba	-0.034653403
87	0x3bc14698	0.005898308
88	0x3d080c94	0.03321512
89	0x3c6cf3a2	0.014462383
90	0x3d1b4b8b	0.03791384
91	0x3d143102	0.03617955
92	0x3ca48d9f	0.020087061
93	0xbbe3d5c8	-0.006952975
94	0x3cb13fac	0.021636806
95	0x3d1ad9b2	0.037805267
96	0xba912b6c	-0.0011075563
97	0xbd1f3af0	-0.038874567
98	0xb9b1df30	-0.00033926358
99	0x3c8880ad	0.01666292
100	0x39a2594e	0.00030965585
101	0x3c2e54ee	0.010640366
102	0x3d27643c	0.040867075
103	0x3d2bd53e	0.04195141
104	0xbcee6c28	-0.029104307
105	0xbc10de33	-0.008842039
106	0xbb92f326	-0.004484552
107	0xbcb698d3	-0.02228967
108	0xbcbb8ebb	-0.022895208
109	0x3d2ca040	0.042145014
110	0x3a257f7c	0.0006313247
111	0xbd03c059	-0.03216586
112	0x3c2603cf	0.010132744
113	0xbba87175	-0.0051404783
114	0xbd0c9011	-0.03431708
115	0x3c5b75fc	0.013394829
116	0xbc74e02e	-0.014946027
117	0xbc21e24b	-0.009880613
118	0x3c07597e	0.008261083
119	0xbcdfe3cf	-0.027330307

f4.f4.f4.weight f4 [84, 120]
0	0xbe1336b5	-0.14376338
1	0x3d1b9a4f	0.037988957
2	0x3dbe6a38	0.09297603
3	0xbc8bf6d0	-0.017085463
4	0x3d2ab033	0.041671943
5	0xbe06e8db	-0.13174765
6	0xb9ceeb86	-0.0003946686
7	0xbdccf35c	-0.100073546
8	0xbdf6d7ac	-0.12052855
9	0x3c54b45d	0.012982455
10	0x3d9532b5	0.07285062
11	0x3c800630	0.01562795
12	0xbd06d064	-0.03291358
13	0xbd0f53c5	-0.034992
14	0xbe0a66ef	-0.13515829
15	0x3c677f81	0.01412952
16	0x3d35b02a	0.044357456
17	0x3d55fb53	0.052241635
18	0x3d543dfa	0.051816918
19	0xbdb3fcce	-0.08788453
20	0x3c4cac1e	0.012492208
21	0xbdb09bd4	-0.08623472
22	0xbd80d8ca	-0.06291349
23	0x3d57ad8f	0.052655753
24	0x3db472be	0.08810948
25	0xbcb5c594	-0.02218894
26	0xbd8a08ca	-0.06739958
27	0x3cb1cd55	0.021704355
28	0x3e164a8f	0.1467688
29	0x3d8aac59	0.06771154
30	0x3d5ee3b3	0.05441637
31	0x3db0be5f	0.086300604
32	0x3de70f41	0.11282206
33	0xbd57983f	-0.052635428
34	0xbd38dce6	-0.04513254
35	0x3d82ad59	0.0638072
36	0x3c2eee05	0.0106768655
37	0x3db4565d	0.08805535
38	0xbe12dc1b	-0.14341776
39	0xbc7ee169	-0.015556672
40	0x3dc8e905	0.0981007
41	0x3d613a17	0.05498704
42	0xbbf01b6f	-0.007327489
43	0x3da5ba66	0.08092193
44	0xbdcb5b4e	-0.09929524
45	0xbd8de393	-0.06928172
46	0xbd2c9942	-0.042138346
47	0x3d595422	0.05305875
48	0xbd69ac83	-0.057049286
49	0xbbc8d02b	-0.006128331
50	0x3d383b88	0.04497865
51	0xbcc8a952	-0.0244948
52	0x3d71ec77	0.0590634
53	0x3b282771	0.0025658275
54	0x3d1ce284	0.03830196
55	0x3c353413	0.011059779
56	0x3d839cbb	0.06426378
57	0x3e1b21e7	0.15149651
58	0x3aa9c0cc	0.0012951135
59	0x3b03835d	0.0020067312
60	0x3d9157ba	0.07096811
61	0x3cd8b2f3	0.026452517
62	0xbd7c5e61	-0.061613444
63	0x3dd0e65b	0.10200187
64	0xbd3077ab	-0.043082874
65	0x3c348873	0.01101886
66	0x3da8bb02	0.08238794
67	0x3d49638f	0.049167212
68	0x3b9ef124	0.0048505235
69	0xbd590912	-0.052987166
70	0x3c143e57	0.009048066
71	0x3d4fdd54	0.050748184
72	0xbd706023	-0.058685433
73	0x3ccf2f67	0.025291158
74	0xbd89210b	-0.066957556
75	0x3de3dc4e	0.11126004
76	0xbd5211ee	-0.05128663
77	0xbdf29593	-0.11844935
78	0x3d92f517	0.071756534
79	0x3d588936	0.05286523
80	0xbddcde0a	-0.10784538
81	0xbd555a1f	-0.0520879
82	0xbdb84372	-0.08997239
83	0x3cef7ee2	0.029235307
84	0x3d70de46	0.058805726
85	0xbd859b16	-0.06523721
86	0x3d263035	0.040573318
87	0x3cdb0983	0.026737934
88	0xbd1a16d6	-0.037619434
89	0xbc960245	-0.01831163
90	0xbde73cec	-0.11290917
91	0xbd2b8a17	-0.04187974
92	0x3b91260f	0.0044295858
93	0xbd725f4e	-0.05917292
94	0xbd7040da	-0.058655597
95	0x3d5583b3	0.05212755
96	0xbd17f16e	-0.03709548
97	0x3d6388ea	0.055550493
98	0x3dc09eb5	0.09405271
99	0xbd3770d8	-0.04478535
100	0x3d979698	0.0740177
101	0xbdb41fe1	-0.08795143
102	0x3e02403b	0.12719814
103	0xbd16c94c	-0.036813065
104	0x3c579e6c	0.013160329
105	0x3db73503	0.08945658
106	0x3da8f618	0.08250064
107	0x3d83c786	0.064345405
108	0xbd8937fe	-0.06700133
109	0xbd09c81d	-0.03363811
110	0x3ce54afc	0.027989857
111	0xbdad8df2	-0.084743395
112	0xbd5a4aae	-0.053293876
113	0x3cb63e73	0.022246575
114	0x3db4bd45	0.08825163
115	0xbb02bedb	-0.0019950185
116	0x3e13875b	0.14407103
117	0x3d937824	0.072006494
118	0x3ddd9606	0.1081963
119	0x3d30b0cc	0.043137357
120	0x3d45efe8	0.048324496
121	0xbd18f257	-0.03734049
122	0x3dc74ab0	0.097310424
123	0x3c526455	0.012841304
124	0x3da82d5f	0.08211779
125	0xbdb3e800	-0.08784485
126	0xbda3ec5f	-0.080040686
127	0xbcc8dae7	-0.024518443
128	0x3cdf94ed	0.027292693
129	0x3da9d71e	0.082929835
130	0x3be948c9	0.0071192724
131	0xbc57af9b	-0.013164426
132	0x3dba0867	0.09083634
133	0xbd933443	-0.071877025
134	0x3d69aa21	0.057047013
135	0xbdc22189	-0.094790526
136	0xbd7dfb2b	-0.06200711
137	0x3cfd0211	0.030884774
138	0xbd65da9b	-0.05611668
139	0xbd431254	-0.0476249
140	0xbcd6e9aa	-0.026234467
141	0x3d3361e3	0.043794524
142	0x3c9fd353	0.019509947
143	0xbd8e48d1	-0.069474824
144	0x3d9c7209	0.07638938
145	0x3d941e0a	0.07232292
146	0xbd339fe0	-0.04385364
147	0x3b430129	0.002975533
148	0xbd370ad0	-0.044688046
149	0x3d00cebd	0.03144716
150	0x3d60046d	0.05469172
151	0xbc9c3d9d	-0.019072348
152	0x3dd1bdf8	0.10241312
153	0x3d7e1df9	0.062040303
154	0x3d043bb5	0.032283504
155	0xbdae3f5b	-0.08508178
156	0x3d0813ab	0.03322188
157	0xbcfe7572	-0.031061862
158	0xbd06d22a	-0.03291527
159	0x3dd09424	0.101845056
160	0xbcbeee08	-0.023306862
161	0xbd34270f	-0.04398256
162	0xbd683dc2	-0.05669952
163	0x3c1153f0	0.00887011
164	0xbc97740e	-0.018487956
165	0xbd03c8ac	-0.032173797
166	0xbd533f8d	-0.05157428
167	0xbdab6ccf	-0.08370363
168	0xbd10ff34	-0.03539963
169	0x3ceb9017	0.02875523
170	0xbcb96e32	-0.022635553
171	0xbd3843ca	-0.044986524
172	0xbc3a1543	-0.011357608
173	0x3cea4cb5	0.02860103
174	0x3c9bf0a6	0.019035649
175	0xbbf85a12	-0.0075790966
176	0xbdaa63cc	-0.08319816
177	0x3de94d24	0.113916665
178	0x3d4af7df	0.049552795
179	0x3cf7eeeb	0.030265292
180	0x3ce585fe	0.028017994
181	0x3bdf4460	0.006813571
182	0xbc663d46	-0.014052695
183	0x3d0e6d1f	0.034772035
184	0xbd7807ab	-0.060554188
185	0x3d8b5871	0.06803978
186	0xbda1bb82	-0.078970924
187	0xbd751fc6	-0.059844755
188	0x3d553dee	0.052061014
189	0x3db01d79	0.085993715
190	0xbd0eafae	-0.03483551
191	0xbd249a51	-0.04018623
192	0x3d866319	0.0656187
193	0x3d361c4d	0.044460583
194	0x3d064820	0.032783628
195	0x3d5f5382	0.054523
196	0xbda0ff1d	-0.07861159
197	0xbd162969	-0.036660586
198	0xbc2949ba	-0.010332519
199	0x3be0876d	0.0068520815
200	0xbcde3501	-0.027124884
201	0x3d33e68f	0.04392105
202	0xbd51b7f1	-0.05120081
203	0x3dbe1f52	0.092833176
204	0x3c7b345f	0.01533231
205	0x3c45beca	0.012069413
206	0xbd9d654d	-0.07685337
207	0xbcf70527	-0.030153824
208	0x3cd5ded7	0.026107235
209	0xba81af30	-0.0009894129
210	0xbd077e4b	-0.033079427
211	0xbd7acf60	-0.061232924
212	0xbd119061	-0.03553808
213	0x3d35fcd1	0.044430558
214	0x3d201a52	0.0390876
215	0xbda117be	-0.078658566
216	0xbd9de3f2	-0.07709493
217	0xbc7f6737	-0.015588573
218	0xbcff3c70	-0.031156749
219	0x3d557cc4	0.05212094
220	0xbcdecb7e	-0.027196642
221	0xbd08192e	-0.03322714
222	0x3afb6136	0.0019178751
223	0x3dbc1f0e	0.09185611
224	0xbd783142	-0.06059385
225	0x3d554a00	0.052072525
226	0xbd7b45ce	-0.061345868
227	0xbc6c55e4	-0.014424775
228	0x3dbbd96d	0.0917233
229	0x3d2c51c3	0.04207016
230	0xbc2d39aa	-0.01057283
231	0x3d8c4818	0.06849688
232	0x3c91b914	0.017788447
233	0xbcc418a5	-0.023937533
234	0x3cc575a5	0.024103949
235	0x3a8c92bd	0.0010724884
236	0x3d15df2d	0.03658979
237	0xbd7a6d27	-0.061139252
238	0x3dd3144b	0.10306605
239	0xbc4346d8	-0.011918746
240	0x3cac8fd0	0.021064669
241	0x3c130767	0.008973933
242	0x3c6538bf	0.01399058
243	0x3d02cfae	0.03193634
244	0x3db1d951	0.08684028
245	0x3dbe1660	0.092816114
246	0xbd65b6e4	-0.05608262
247	0x3d9a85ad	0.07545028
248	0x3dbacc53	0.09121003
249	0x3d28d57e	0.041219227
250	0x3d0ded2b	0.03465001
251	0xbd8da820	-0.06916833
252	0x3d8f3283	0.06992056
253	0x3ca23e16	0.019804996
254	0x3d92da1a	0.07170506
255	0xbb0444f7	-0.0020182708

f4.f4.f4.bias f4 [84]
0	0xbd8ac765	-0.06776313
1	0xbda06195	-0.07831112
2	0x3cb76694	0.02238778
3	0x3d723c4f	0.059139546
4	0xbd6abf00	-0.057311058
5	0xbce947ab	-0.028476557
6	0xbdb066bf	-0.08613347
7	0x3d926bc1	0.07149459
8	0xbd7750ad	-0.060379673
9	0x3d7f2486	0.06229069
10	0x3d9aca4e	0.07558118
11	0xbca84276	-0.020539504
12	0x3da772ad	0.081761695
13	0xbc843fd4	-0.016143717
14	0xbcc51f97	-0.024062915
15	0xbd20e7da	-0.03928361
16	0x3c905865	0.017620275
17	0x3d3ba06c	0.045807287
18	0xbdabbbd1	-0.083854325
19	0x3d22e528	0.03976932
20	0xbd9367d2	-0.071975365
21	0x3da94db8	0.08266777
22	0x3ca63790	0.020290166
23	0x3d56431d	0.052310098
24	0xbda93f08	-0.082639754
25	0x3d39aeb9	0.045332644
26	0xbc66dbb6	-0.014090469
27	0xbd6df68d	-0.058096457
28	0xbcaadcdc	-0.020857267
29	0xbcd97e06	-0.02654935
30	0xbd8f71fb	-0.07004162
31	0xbc9b3a49	-0.018948691
32	0x3bd923a9	0.0066265655
33	0xbd473e5c	-0.048643455
34	0xbca8218d	-0.02052381
35	0x3da7baa0	0.08189893
36	0x3cf02dab	0.029318651
37	0x3d1708e6	0.03687372
38	0x3dae266d	0.08503423
39	0x3d86cf4d	0.06582508
40	0xbcd9dbc5	-0.026594052
41	0x3c066b52	0.008204298
42	0xbd187f84	-0.037230983
43	0x3cd5a817	0.026081128
44	0x38caaa28	9.663805e-05
45	0x3befda5a	0.0073197307
46	0x3c5b7333	0.013394165
47	0x3d243153	0.0400861
48	0x3d8e94f7	0.069620065
49	0xbc033d3f	-0.008010208
50	0xbcb9f737	-0.022700889
51	0xbdb75969	-0.089526005
52	0x3b212fae	0.002459507
53	0xbd576a0f	-0.05259138
54	0xbdb280f6	-0.087160036
55	0xbcec4331	-0.028840633
56	0xbce3b642	-0.027796868
57	0xbd72f4ab	-0.059315365
58	0x3d2763d6	0.040866695
59	0x3d9358cc	0.07194671
60	0xbd551908	-0.052025825
61	0xbcbd323b	-0.02309524
62	0x3d4829fb	0.04886816
63	0x3cc7585e	0.024334129
64	0xbda2073f	-0.07911538
65	0x3d65cc4d	0.05610304
66	0x3c0cfe4f	0.008605554
67	0xbd466bd5	-0.04844268
68	0xbd12612a	-0.035737194
69	0x3d423d91	0.047421996
70	0x3d90cd0d	0.0707036
71	0x3cdede51	0.027205618
72	0xbc668972	-0.014070855
73	0x3d93be7c	0.072140664
74	0xbd7e1b18	-0.062037557
75	0xbcbca031	-0.023025604
76	0x3d8ac1d8	0.06775254
77	0x3dcac4ab	0.09900793
78	0xbd9bb4df	-0.07602858
79	0x3d6c66e3	0.057715308
80	0xbc47fe31	-0.0122066
81	0x3db87bbc	0.090079755
82	0x3da116f5	0.07865707
83	0x3da3fa40	0.08006716

f5.f5.f5.weight f4 [10, 84]
0	0xbe4beea2	-0.1991525
1	0x3aaed403	0.0013338331
2	0xbe0cae4f	-0.13738368
3	0xb903966e	-0.00012549173
4	0xbd8bc1b9	-0.06824059
5	0xbd98ae6f	-0.074551456
6	0x3cc086cc	0.023501776
7	0xbca79db2	-0.020460937
8	0xbdf84b9b	-0.121237956
9	0xbe1c8bbf	-0.15287684
10	0x3dc4b863	0.096054815
11	0x3db612c2	0.088902965
12	0xbd8e7cf1	-0.069574244
13	0x3d4c2c17	0.049846735
14	0x3c2ffecb	0.0107419
15	0xbe1dc6d5	-0.1540788
16	0xbca9f5d4	-0.020747103
17	0xbcdec05a	-0.02719133
18	0xbdfef58e	-0.124491796
19	0xbdf0f86c	-0.11766133
20	0xbd1f1942	-0.038842447
21	0x3d95bb6d	0.07311139
22	0xbdf2d6c7	-0.11857372
23	0x3d988ce9	0.074487515
24	0x3dadc912	0.08485617
25	0x3d2794e1	0.040913466
26	0xbdd8f269	-0.10593111
27	0x3dbdd8ac	0.092698425
28	0x3d67781b	0.056511026
29	0x3e3482c6	0.17628011
30	0xbcac57bc	-0.021037929
31	0xbdb917a3	-0.090377115
32	0xbdc7b0d0	-0.09750521
33	0x3dbaf1a9	0.09128124
34	0x3da650a9	0.081208535
35	0xbda89929	-0.08232338
36	0x3e65f0a8	0.22455084
37	0x3d47fb5a	0.048823692
38	0xbcca2a89	-0.024678485
39	0x3de63dc7	0.11242252
40	0xbc6da2ca	-0.014504144
41	0x3cdf4ec0	0.02725923
42	0xbce803ab	-0.028322062
43	0x3e0aeace	0.13566133
44	0xbddb88b7	-0.10719436
45	0x3c3df942	0.011595072
46	0x3e297a81	0.16550638
47	0x3d620130	0.055176914
48	0x3dd717f3	0.10502615
49	0xbdad4da0	-0.084620714
50	0xbcf4e1d7	-0.029892845
51	0xbcc6014a	-0.024170537
52	0xbc28b76f	-0.01029764
53	0xbd88fe1c	-0.066890925
54	0xbdbfb82b	-0.09361299
55	0x3db57cd4	0.088617
56	0xbc428104	-0.01187158
57	0x3d972f8f	0.07382118
58	0x3ddc909e	0.10769771
59	0xbddfa25a	-0.10919638
60	0x3e102ac7	0.14078818
61	0xbc23ed1f	-0.010005265
62	0x3caa7351	0.02080694
63	0x3e14ddca	0.14537731
64	0x3d3c410d	0.045960475
65	0x3ce469af	0.027882425
66	0xbe06d5d4	-0.13167506
67	0xbc891a77	-0.016736252
68	0x3cb45da1	0.022017302
69	0xbc9c1a79	-0.019055592
70	0xbd9fd20c	-0.07803735
71	0x3d067b32	0.032832332
72	0x3e278388	0.16358769
73	0x3d27de73	0.04098363
74	0x3caa9b4f	0.02082601
75	0x3db653f0	0.089027286
76	0x3e474c06	0.19462594
77	0xbd743930	-0.05962485
78	0xbd1096dd	-0.035300124
79	0xbdb32f00	-0.08749199
80	0xbe35885a	-0.17727795
81	0x3dc6cc01	0.097068794
82	0xbdd29e47	-0.10284095
83	0x3c21fc5b	0.009886826
84	0x3d9e333b	0.07724615
85	0x3dcfe9b2	0.10151996
86	0xbd9ddda8	-0.07708293
87	0x3e519e73	0.204706
88	0x3c9a89ff	0.01886463
89	0xbdc1f661	-0.09470821
90	0x3dc3166c	0.09525761
91	0xbda820ec	-0.08209404
92	0xbdd6f5c8	-0.10496098
93	0xbd7d5a56	-0.06185373
94	0x3aa90500	0.0012895167
95	0x3df578d2	0.11985935
96	0xbd9cc97f	-0.0765562
97	0x3e0fbc0b	0.14036576
98	0x3d6841d7	0.056703415
99	0x3e20b3e6	0.15693626
100	0x3e0c761d	0.13716932
101	0x3e18d430	0.14924693
102	0xbd784c58	-0.060619682
103	0x3e41ecc1	0.1893797
104	0x3d03ff43	0.03222586
105	0xbce678a5	-0.0281337
106	0xbdc2face	-0.095204934
107	0xbd634e7c	-0.05549477
108	0x3d0340c4	0.032044187
109	0x3e3b856c	0.18312615
110	0xba0a5bd8	-0.0005277968
111	0xbe413f17	-0.18871723
112	0x3da8c526	0.08240728
113	0xbe478861	-0.19485618
114	0x3d6e227b	0.058138352
115	0x3dd4633f	0.10370492
116	0x3d0d61f6	0.03451725
117	0xbdf57319	-0.11984844
118	0x3e32dd32	0.17467192
119	0xbc8d9526	-0.017283034
120	0xbbe18332	-0.006882095
121	0x3d612e82	0.054975994
122	0x3bec8346	0.0072177975
123	0xbd38a166	-0.045075797
124	0xbc6b461b	-0.014359976
125	0x3d628265	0.055300135
126	0xbdb5df82	-0.08880521
127	0x3e02a06f	0.12756513
128	0x3d844f4a	0.06460436
129	0x3e02a4c7	0.1275817
130	0xbd8a6b96	-0.06758802
131	0xbd85a83a	-0.06526227
132	0xbe299542	-0.16560844
133	0x3d52f29f	0.051500913
134	0x3dd15797	0.102217846
135	0xbc6ab55f	-0.014325469
136	0x3dd8f573	0.10593691
137	0xbd26ee53	-0.040754627
138	0x3e319378	0.17341411
139	0x3d7eadad	0.06217735
140	0xbba09db8	-0.004901614
141	0xbd9311d8	-0.07181138
142	0x3d96eb24	0.07369068
143	0x3d3179a7	0.043328907
144	0xbdb9ff82	-0.090819374
145	0xbdc07759	-0.09397764
146	0xbd78420c	-0.060609862
147	0x3dba3819	0.09092731
148	0x3dd98acc	0.106221765
149	0xbd6fb40d	-0.05852132
150	0xbe154d4f	-0.14580272
151	0xbd2bb91b	-0.041924577
152	0x3db5aecd	0.08871231
153	0x3cee2875	0.029072026
154	0x3e3fe8cc	0.18741149
155	0xbdd01d56	-0.101618454
156	0xbe0abb81	-0.1354809
157	0xbb93a85a	-0.004506153
158	0x3dca6907	0.098833136
159	0x3dca567e	0.09879778
160	0xbc72269d	-0.014779714
161	0x3e30fd85	0.1728421
162	0x3d17293c	0.03690456
163	0xbd92dfb8	-0.07171577
164	0xbd8681dd	-0.06567738
165	0x3d2b4279	0.04181144
166	0xbe040e2e	-0.12896034
167	0x3d083f81	0.033263687
168	0x3e4b58ee	0.19858143
169	0x3e110939	0.14163674
170	0x3defdc5d	0.11711953
171	0x3d344ce6	0.04401865
172	0xbdb6fb67	-0.0893467
173	0xbddd7fe0	-0.10815406
174	0x3d3fa860	0.046791434
175	0xbddaa485	-0.10675911
176	0x3df59cf4	0.11992827
177	0xbddbe62d	-0.10737262
178	0xbda75021	-0.0816958
179	0x3d6eafae	0.05827301
180	0x3d83af3a	0.06429906
181	0x3c876c73	0.016531205
182	0xbd0bda10	-0.034143507
183	0xbdea92ab	-0.11453756
184	0xbd7d6c9e	-0.061871164
185	0x3c1fca78	0.009752862
186	0xbe497c5a	-0.19676343
187	0xbd41e9a2	-0.04734195
188	0xbe0ec2dc	-0.1394152
189	0xbe02202b	-0.12707584
190	0x3e4c9ed8	0.19982469
191	0x3e5b0d66	0.2139183
192	0x3d793980	0.060845852
193	0xbd757d00	-0.059933662
194	0xbd70318b	-0.058640998
195	0xbcefaacf	-0.029256253
196	0x3d3972fc	0.045275673
197	0x3c3af7ad	0.01141159
198	0xbc117312	-0.008877533
199	0xbdb71412	-0.08939375
200	0xbccfa9ac	-0.02534946
201	0x3cfcdc1c	0.030866675
202	0xbcd9192c	-0.02650126
203	0x3d3c3a0c	0.045953795
204	0x3d1f777f	0.03893232
205	0x3d564e74	0.052320912
206	0x3e20ba88	0.15696156
207	0x3e4ae46a	0.19813696
208	0x3d0b30fb	0.03398226
209	0x3ca06602	0.019579891
210	0xbd33041a	-0.043705083
211	0x3d8832fa	0.06650348
212	0xbe0c0171	-0.13672425
213	0x3c15fd43	0.009154621
214	0xbc10be35	-0.008834411
215	0xbdca1831	-0.098678954
216	0xbdc4fc9d	-0.09618495
217	0x3c291269	0.010319331
218	0x3d3cef16	0.046126448
219	0xbd9aff83	-0.07568266
220	0x3d1fc4c6	0.039006017
221	0xbc95c5fe	-0.018282887
222	0x3d5f44ec	0.05450909
223	0x3dce0851	0.1006018
224	0x3e0a7743	0.13522057
225	0x3d825919	0.0636465
226	0x3b574d1c	0.0032852357
227	0x3e01fd1d	0.12694211
228	0x3d85c4ed	0.06531701
229	0xbc992db5	-0.018698553
230	0x399b60ec	0.00029636116
231	0xbd0ab04c	-0.033859536
232	0xbd466f4e	-0.048445992
233	0x3dddd3fd	0.10831449
234	0x3de52bb8	0.11189979
235	0xbde4942a	-0.111610726
236	0x3c8d135a	0.017221142
237	0xbd2f5e6b	-0.042814653
238	0x3de6b6cf	0.11265337
239	0x3d6f98fe	0.058495514
240	0xbd87afd0	-0.066253304
241	0x3e4ed1c3	0.20197205
242	0x3d0a52e9	0.033770476
243	0x3d8a3521	0.06748415
244	0x3cce8aef	0.025212733
245	0xbd8a063d	-0.06739471
246	0x3db15dd1	0.08660472
247	0x3d9f24b8	0.077706754
248	0x3daa5eba	0.08318849
249	0x3cd83a0a	0.026394863
250	0xbde34ccd	-0.11098633
251	0xbe03c156	-0.1286672
252	0x3e91e317	0.28493568
253	0x3e0a646f	0.13514875
254	0xbe398108	-0.18115628
255	0xbdc58488	-0.09644419

f5.f5.f5.bias f4 [10]
0	0x3db5408a	0.088502005
1	0x3dc4c0be	0.09607075
2	0xbdb3399f	-0.08751225
3	0x3d3fe51b	0.04684935
4	0x3a72c429	0.00092607975
5	0x3caf469f	0.02139598
6	0xbd8fad13	-0.07015433
7	0x3c8570d2	0.016289148
8	0xbd3c4711	-0.04596621
9	0xbc8d6f9d	-0.017265135
