models/MNIST/LeNet/model.pth (torch_old, 258812 bytes, 12 tensors)

c1.c1.c1.weight f4 [6, 1, 5, 5]
0	0x3e4dca85	0.20096786
1	0x3e4955a3	0.19661574
2	0x3e844ca3	0.2583972
3	0x3d95e2de	0.07318662
4	0x3ea4c641	0.32182506
5	0x3d4eb7e6	0.050468348
6	0x3df85eff	0.12127494
7	0x3ddb47ff	0.107070915
8	0x3e82a38d	0.25515404
9	0x3caeca9b	0.021336844
10	0x3d922394	0.07135692
11	0xbdf101a1	-0.11767889
12	0xbe19c609	-0.1501695
13	0x3b375b29	0.002797792
14	0x3e32f57e	0.1747646
15	0x3d17b7dd	0.03704058
16	0xbe85ece9	-0.2615731
17	0x3e1e3bc5	0.15452488
18	0xbe5da3c3	-0.21644501
19	0x3e148fd4	0.14507991
20	0xbe20f5b8	-0.15718734
21	0xbe66d48d	-0.22542019
22	0xbe5f801c	-0.21826214
23	0x3ce633ca	0.028100867
24	0x3c35c450	0.011094168
25	0x3e1dff75	0.1542948
26	0xbe22dfba	-0.15905657
27	0xbd26748d	-0.040638495
28	0x3e713061	0.23553611
29	0x3e6d3919	0.23166312
30	0x3db6fa33	0.089344405
31	0xbdefd13f	-0.117098324
32	0xbe29393d	-0.16525741
33	0xbda24dd7	-0.07925003
34	0x3e0f0d65	0.13969953
35	0x3e5fdfff	0.21862791
36	0x3c89893d	0.016789073
37	0xbd70927b	-0.058733445
38	0x3d80f0ae	0.06295906
39	0xbe423fee	-0.189697
40	0x3e08bad2	0.13352516
41	0xbe475278	-0.19465053
42	0xbe2571d1	-0.16156699
43	0xbde0c25b	-0.1097457
44	0xbd17dce3	-0.03707589
45	0x3da1db9e	0.07903217
46	0x3e274472	0.16334704
47	0xbe69e4ff	-0.22841261
48	0x3cd1292e	0.025532331
49	0xbe394758	-0.18093622
50	0x3de807a6	0.11329584
51	0x3e900781	0.28130725
52	0x3e2f5167	0.17120896
53	0xbe1d0b00	-0.15336227
54	0xbe6ca9a4	-0.23111588
55	0x3e6c3da8	0.23070395
56	0x3e8f589c	0.2799729
57	0xbdc455d3	-0.09586682
58	0x3b0c2706	0.0021385564
59	0xbea58ea3	-0.32335386
60	0x3e427e23	0.1899343
61	0x3eac02c8	0.33595872
62	0x3e59f1ab	0.21283595
63	0xbe9b3e87	-0.30321142
64	0xbeb0a383	-0.3449975
65	0x3e9e34e6	0.30899733
66	0x3e83d3bb	0.25747475
67	0x3e85d2cd	0.2613739
68	0xbd0cf989	-0.034417663
69	0x3d6e2d37	0.05814859
70	0x3e9410b0	0.28918982
71	0x3ebbc9e4	0.36677468
72	0x3e9ac755	0.30230203
73	0x3e347065	0.17621
74	0x3e80adc7	0.25132582
75	0x3c023ae6	0.007948613
76	0xbe33f6db	-0.17574637
77	0x3c95a160	0.018265426
78	0x3ab6382f	0.0013902242
79	0x3d242555	0.040074665
80	0xbda51098	-0.08059806
81	0x3cea0357	0.028566046
82	0xbe7b6f46	-0.24554166
83	0xbe1ef413	-0.15522794
84	0xbdaec2f4	-0.08533278
85	0xbe60d26b	-0.21955268
86	0xbdb2dbde	-0.087333426
87	0x3dcd9042	0.100372806
88	0x3e394d34	0.18095857
89	0x3e11a043	0.14221291
90	0x3d8274a9	0.063699074
91	0xbc9519dc	-0.018200807
92	0x3e0c063d	0.13674255
93	0x3c8f786c	0.017513476
94	0xbe0ad9c4	-0.13559633
95	0x3da3e1d4	0.08002058
96	0x3e86ceec	0.26329744
97	0x3e2b6838	0.16738975
98	0x3dbe1c08	0.0928269
99	0xbd09366d	-0.03349917
100	0x3e164743	0.14675622
101	0x3e77f876	0.24215874
102	0x3e1cf1f9	0.1532668
103	0x3e89fc8f	0.269505
104	0x3d6fd414	0.058551863
105	0x3d9cc25d	0.07654259
106	0x3cb8da01	0.02256489
107	0x3da0b319	0.0784666
108	0x3ea7f466	0.3280365
109	0x3e8f98a7	0.28046152
110	0xbe780499	-0.24220504
111	0x3c763ab6	0.015028646
112	0x3ea1cf41	0.31603435
113	0x3ec27175	0.37977186
114	0x3ef8b103	0.4857255
115	0xbd9e7f3a	-0.0773911
116	0xbd893d05	-0.06701092
117	0x3ec54a6b	0.3853334
118	0x3f021494	0.5081265
119	0x3e6b42a4	0.2297464
120	0xbccd9cb7	-0.025099142
121	0x3e523fbd	0.20532127
122	0x3da7be54	0.08190599
123	0x3dab7ce5	0.08373431
124	0x3e8bf781	0.27337268
125	0x3e090912	0.13382366
126	0xbddda04e	-0.10821591
127	0xbe961e8e	-0.29320186
128	0xbeaf448e	-0.3423199
129	0xbe921f45	-0.28539482
130	0xbe28bee5	-0.1647907
131	0xbe72712e	-0.23675987
132	0xbde42b16	-0.111410305
133	0xbdc3ebca	-0.095664576
134	0x3cdc72a0	0.026910126
135	0x3db2f936	0.087389395
136	0x3d95123c	0.072788686
137	0x3e86a90b	0.26300845
138	0x3e417503	0.18892293
139	0x3e07fff6	0.13281235
140	0x3e9c283c	0.30499446
141	0x3ec87cb6	0.39157647
142	0x3d8177b6	0.06321661
143	0x3eca5d10	0.39524126
144	0x3ebc4d73	0.3677784
145	0x3e9cc1a1	0.30616477
146	0x3e58f89d	0.21188588
147	0x3d81f1c7	0.063449435
148	0xbdb07615	-0.08616272
149	0x3d44e74c	0.048072144

c1.c1.c1.bias f4 [6]
0	0x3e464a27	0.19364224
1	0xbdb5efb5	-0.08883611
2	0x3e1cc5de	0.15309855
3	0xbd18e53b	-0.037327986
4	0x3e20a9a0	0.15689707
5	0x3d839baf	0.06426179

c2_1.c2.c2.weight f4 [16, 6, 5, 5]
0	0xbd49ae33	-0.049238395
1	0xbda90e36	-0.08254664
2	0xbd35d0da	-0.04438863
3	0x3c1461b0	0.009056494
4	0x3ccb28f0	0.024799794
5	0x3d0746e8	0.033026606
6	0x3da81db8	0.082087934
7	0x3d30d9ff	0.043176647
8	0xbd7a581f	-0.061119195
9	0xbd3d3bc8	-0.04619959
10	0xbd08a237	-0.033357825
11	0xbd47f8a4	-0.048821107
12	0x3d1c72a5	0.03819527
13	0xbbe26cc6	-0.0069099395
14	0x3da31b6e	0.07964216
15	0xbafa9a74	-0.0019119517
16	0x3d3cce70	0.04609531
17	0xbd4a5a22	-0.049402364
18	0x3d87632c	0.066107124
19	0xbd4203a8	-0.047366768
20	0x3d623b1d	0.055232156
21	0xbc86ea91	-0.016469272
22	0xbd4ed8bd	-0.050499666
23	0x3ba454b8	0.005014982
24	0xbda774fa	-0.081766084
25	0x3ce9f884	0.028560884
26	0xbd13712a	-0.035996594
27	0xbc894856	-0.016758125
28	0xbc3e6c9f	-0.011622577
29	0xbcd3c5ee	-0.025851216
30	0x3d3f2922	0.046670087
31	0x3d9ea262	0.07745816
32	0x3d01e8e8	0.031716257
33	0x3b013c65	0.0019719836
34	0xbd4b4af2	-0.04963202
35	0x3d7abace	0.061213307
36	0xbcd84487	-0.026399864
37	0xbd79e698	-0.061010927
38	0x3d793eab	0.06085078
39	0xbd676ef5	-0.0565023
40	0xbabd3920	-0.001443658
41	0xbcc08c87	-0.023504509
42	0x3d216f6b	0.039412897
43	0xbd6ddca2	-0.05807174
44	0xbd4505e7	-0.048101332
45	0xbdaa6eea	-0.083219364
46	0xbcacb9da	-0.021084715
47	0xbda2d133	-0.07950058
48	0x3d3f9bf1	0.046779577
49	0x3d5286f2	0.051398225
50	0x3d147c20	0.036251187
51	0x3da7f3fa	0.08200832
52	0xbcdf3513	-0.027246987
53	0x3c2e66e8	0.010644652
54	0x3a2f554d	0.0006688431
55	0xbda32dde	-0.07967733
56	0xbc5adc87	-0.013358242
57	0xbc4f51a2	-0.01265374
58	0xbda261da	-0.0792882
59	0xb981e6db	-0.00024776798
60	0xbd6d5d6e	-0.05795043
61	0xbcea0efd	-0.0285716
62	0xbcbbfd47	-0.02294792
63	0xbcccc755	-0.024997393
64	0xbabd8ad6	-0.0014460932
65	0x3d3a686e	0.04550975
66	0x3da30758	0.07960385
67	0xbd595918	-0.053063482
68	0x3d5dfd07	0.054196384
69	0x3cbb653e	0.022875424
70	0x3da91828	0.082565606
71	0x3da7fb15	0.08202187
72	0x3d7670f8	0.06016633
73	0x3d2dfd1b	0.04247771
74	0x3cd9c8f8	0.026585087
75	0xbd075047	-0.033035543
76	0xbd18c3ad	-0.037295986
77	0xbd52b333	-0.05144043
78	0xbceb1409	-0.028696077
79	0x3d97f0c9	0.07418973
80	0xbd7280bc	-0.059204802
81	0xbd8e0906	-0.06935315
82	0x3d11699c	0.035501108
83	0x3cff2a23	0.031148022
84	0x3d3ebdfa	0.046567895
85	0xbd6961f2	-0.056978174
86	0x3c4dbff7	0.012557975
87	0xbcfa89d3	-0.030583298
88	0xbd8a4362	-0.067511335
89	0x3d176dba	0.036969878
90	0xbcafb69b	-0.021449378
91	0xbd19b43c	-0.0375254
92	0x3c50c620	0.012742549
93	0xbd0e64f0	-0.03476423
94	0x3c2c0438	0.010499053
95	0x3d7a03d1	0.061038796
96	0x3d226fdb	0.039657455
97	0xbc9b3008	-0.018943802
98	0x3d7caee5	0.06169023
99	0xbd8428ce	-0.064530954
100	0xbca71fb4	-0.02040086
101	0x3d1c2b1b	0.038127046
102	0x3dc66a3f	0.096882336
103	0x3cff8250	0.031190068
104	0xbb6a7e88	-0.0035780985
105	0x3c5969d1	0.0132698575
106	0x3c103e91	0.0088039795
107	0x3bea32f5	0.007147188
108	0xbd6d5761	-0.05794466
109	0x3d5c4b58	0.05378279
110	0xbdf2fa19	-0.118641086
111	0x3ce9da8e	0.028546598
112	0xbd773fa6	-0.060363434
113	0xbd8f5c9e	-0.07000087
114	0xbc8c5eb5	-0.017135004
115	0xbdd6e4db	-0.104928695
116	0xbd63ee0d	-0.055646945
117	0x3cb63c4a	0.022245545
118	0xbdd0ae6b	-0.101895176
119	0x3d5f73f9	0.05455396
120	0x3d44dbc2	0.04806114
121	0x3ddc673b	0.10761877
122	0x3c05f0b4	0.008175064
123	0xbd147c45	-0.036251325
124	0xbd9948dd	-0.07484601
125	0x3c8f4bd5	0.017492214
126	0x3d275148	0.040849
127	0x3d9cd760	0.07658267
128	0xbd30ef58	-0.043197006
129	0x3d2f576c	0.04280798
130	0xbba59686	-0.005053344
131	0x3cf7af3a	0.030234922
132	0xbceceb48	-0.028920785
133	0xbd8454c6	-0.06461482
134	0xbda73bb7	-0.081656866
135	0x3c4ee31e	0.012627391
136	0xbd7561f1	-0.059907857
137	0xbd921c65	-0.07134322
138	0xbd6fc00d	-0.058532763
139	0x3bf272d7	0.007398944
140	0xbb951b7a	-0.0045503946
141	0x3d47779a	0.048698045
142	0xbbe75e81	-0.0070608263
143	0xbd5d5958	-0.054040283
144	0xbd9798b3	-0.07402172
145	0x3da550a7	0.08072024
146	0x3d9ed608	0.07755667
147	0x3d90be8b	0.07067593
148	0xbd256710	-0.04038149
149	0xbc8ce71d	-0.017200047
150	0xbd8edde9	-0.0697592
151	0xbbe761a1	-0.007061199
152	0xbd9e9095	-0.077424206
153	0xbdb14b4a	-0.086569384
154	0xbda78740	-0.08180094
155	0xbd896a09	-0.06709678
156	0xbd8b241f	-0.06793999
157	0xbd757dfb	-0.059934597
158	0x3d9bc776	0.076064035
159	0x3c550c4c	0.01300342
160	0x3dce9b4f	0.100882165
161	0x3d1af2ee	0.037829332
162	0x3d0e7124	0.034775868
163	0x3dafc060	0.085816145
164	0xbd5ee215	-0.054414827
165	0x3d556633	0.052099418
166	0x3dddb82d	0.10826144
167	0xbcd475fa	-0.025935162
168	0xbd4b5c92	-0.04964883
169	0xbd156cde	-0.036480777
170	0x3d6824a4	0.05667557
171	0x3d7bb9e8	0.06145659
172	0x3d023d32	0.03179664
173	0xbd585ffd	-0.052825917
174	0xbd298ac3	-0.0413921
175	0xbda1e9ac	-0.079058975
176	0x3be96e2f	0.0071237306
177	0x3c04a136	0.008095076
178	0xbc2e07aa	-0.010621944
179	0x3d4bd367	0.049762156
180	0x3d0dd77a	0.034629323
181	0xbdbc3438	-0.091896474
182	0x3d6a8114	0.057252005
183	0x3d86a2c8	0.06574017
184	0x3d9c86f7	0.0764293
185	0x3d96d0b9	0.073640294
186	0xbc8ba9be	-0.017048713
187	0x3d86fecb	0.06591567
188	0x3d3feb6b	0.04685537
189	0x3cf1631f	0.02946621
190	0xbc033924	-0.008009229
191	0x3bc1e034	0.0059166197
192	0xbce56f61	-0.028007211
193	0x3d02f270	0.031969488
194	0xbd5ce4b2	-0.05392904
195	0x3d1c1067	0.03810158
196	0x3d86353e	0.06553124
197	0x3d7a244b	0.061069768
198	0x3d63ddfc	0.055631623
199	0xbb6c2c10	-0.0036037005
200	0x3d3189de	0.04334437
201	0x3d351af1	0.044215146
202	0x3c740e33	0.0148959635
203	0xbd4e2c8b	-0.05033545
204	0xbda4ab2a	-0.080404595
205	0x3d460572	0.048345037
206	0x3dc20024	0.09472683
207	0x3becfcef	0.0072323005
208	0x3d447bd0	0.04796964
209	0xbcec0858	-0.028812572
210	0xbc798aa0	-0.015230805
211	0x3c3a95dc	0.011388268
212	0xbd4491fe	-0.04799079
213	0x3cc94c9a	0.02457266
214	0xbca75aa2	-0.02042896
215	0xbd8d3876	-0.06895535
216	0xbd45b168	-0.04826489
217	0x3d2745f4	0.040838197
218	0x3d51a54b	0.051183026
219	0xbd1e3158	-0.038621277
220	0x3d319c53	0.043361973
221	0xbd789d3f	-0.060696837
222	0x3d039480	0.032124043
223	0x3d7bca7d	0.061472405
224	0xbb185455	-0.0023243625
225	0xbc04d6d4	-0.00810786
226	0x3d227a00	0.03966713
227	0x3dbbd1a2	0.09170844
228	0xbbe28af2	-0.006913536
229	0x3d55cd94	0.052198008
230	0xbcda61e4	-0.026658006
231	0xbd743acf	-0.059626397
232	0x3d1ba3ff	0.037998196
233	0x3d419afc	0.047266945
234	0xbd9bd907	-0.07609754
235	0xbd94e1c5	-0.072696246
236	0xbd8bd27c	-0.06827256
237	0xbbd653cb	-0.0065407506
238	0xbd96368c	-0.07334623
239	0xbd275de7	-0.040861037
240	0xbdbf418c	-0.09338674
241	0x3cbe92e1	0.023263397
242	0x3d023a88	0.0317941
243	0xbd2c6a6e	-0.042093687
244	0x3d5ddb58	0.05416426
245	0x3cbefa3a	0.023312677
246	0xbd7cbd5b	-0.06170402
247	0x3da7712b	0.08175882
248	0x3d8c6c86	0.06856637
249	0x3bde7688	0.0067890324
250	0xbd6bef9e	-0.057601564
251	0xbde4fda9	-0.11181194
252	0xbb09bcf2	-0.0021017161
253	0x3d877527	0.06614142
254	0xbd69cb4c	-0.057078645
255	0xbd1095b2	-0.03529901

c2_1.c2.c2.bias f4 [16]
0	0x3d865655	0.06559435
1	0xbd610187	-0.054933097
2	0xbbff33ad	-0.0077881427
3	0xbd3ab8ea	-0.045586504
4	0x3d7735c7	0.06035402
5	0x3d42ac6c	0.047527716
6	0x3b032901	0.0020013454
7	0xbc0e2288	-0.008675225
8	0x3bfb9cfc	0.007678626
9	0xbc1e8ab6	-0.009676626
10	0xbd0e2f8f	-0.034713324
11	0xbd88d97a	-0.06682105
12	0xbc7da911	-0.015482203
13	0x3ce36ebc	0.027762763
14	0x3c668a21	0.014071018
15	0xbcb5dc2c	-0.022199713

c2_2.c2.c2.weight f4 [16, 6, 5, 5]
0	0xbd215b6c	-0.039393827
1	0x3d8ce3e8	0.06879407
2	0xba4233a6	-0.0007408209
3	0xbb6c7e32	-0.003608596
4	0x3c7f08e6	0.015566086
5	0xbc902327	-0.017594887
6	0x3d5f8614	0.054571226
7	0x3ce01909	0.027355688
8	0xbc88a21e	-0.016678866
9	0xbd8cd026	-0.06875639
10	0xbd164941	-0.036690954
11	0x3d414e75	0.047193963
12	0x3da0a237	0.0784344
13	0x3bde9221	0.0067923223
14	0x3d30377d	0.043021668
15	0x3d448eba	0.047987677
16	0x3cdfa7c0	0.02730167
17	0x3d8cca55	0.06874529
18	0x3d557fdb	0.052123886
19	0xbd21b445	-0.03947856
20	0xbce862e3	-0.028367465
21	0xbc3cff57	-0.011535487
22	0x3d42dea1	0.047575597
23	0xbd0a062e	-0.0336973
24	0x3d1822ee	0.037142687
25	0xbbde0056	-0.0067749424
26	0x3c30b34e	0.010784937
27	0x3d900842	0.07032825
28	0xbc21774e	-0.009855105
29	0xbd1b685e	-0.03794133
30	0xbba9cd70	-0.0051819608
31	0x3d67a951	0.056557957
32	0x3da1cc79	0.07900328
33	0x3d977a32	0.07396354
34	0x3d0a6ce4	0.033795252
35	0x3cd8432c	0.026399218
36	0x3cd3025d	0.025757963
37	0xbcee77e8	-0.02910991
38	0x3da2c8be	0.07948445
39	0x3c41f69c	0.011838581
40	0xb90ce3a2	-0.0001343624
41	0xbd2fce7b	-0.042921524
42	0xbd1f0c3b	-0.038830023
43	0x3d307edf	0.043089744
44	0xbc79aa24	-0.015238319
45	0x3d2e15c2	0.04250122
46	0x3cf6bcdf	0.030119358
47	0x3c9a07e1	0.018802585
48	0xbd8f4abf	-0.069966786
49	0xbda30280	-0.07959461
50	0x3cd46d03	0.025930887
51	0xbcbabf41	-0.022796275
52	0x3dcac1c3	0.09900238
53	0x3d65764e	0.056021027
54	0xbcf8f7ce	-0.0303916
55	0xbd39e47c	-0.045383915
56	0xbd5fb5ee	-0.05461686
57	0x3d786255	0.06064065
58	0xbd302129	-0.043000374
59	0x3bcf67ff	0.006329536
60	0x3d418900	0.047249794
61	0xbdd0330c	-0.101659864
62	0xbd258f6d	-0.040419985
63	0xbc37c005	-0.011215215
64	0xbc4ca321	-0.012490065
65	0xbd57b8d4	-0.0526665
66	0x3d2b1e7a	0.04177711
67	0xbd6d1bbd	-0.05788778
68	0xbd70c50a	-0.05878166
69	0xbd887ec3	-0.06664803
70	0x3ae7ef8e	0.0017695294
71	0x3c4c92a5	0.012486135
72	0x3d7dfc58	0.062008232
73	0xbcb9e4e8	-0.022692159
74	0x3cb292df	0.02179855
75	0x3d876eb4	0.06612912
76	0xbc355611	-0.011067883
77	0x3d8bc711	0.06825078
78	0x3d8b5e8c	0.06805143
79	0x3cff2641	0.03114617
80	0x3d974439	0.07386059
81	0xbd7f1671	-0.06227726
82	0xbd6f5f2c	-0.058440372
83	0x3da1611a	0.07879849
84	0x3da4f46b	0.080544315
85	0x3c65f032	0.014034318
86	0x3d0f4ff2	0.03498835
87	0xbd211a2a	-0.039331593
88	0x3b82fb51	0.0039972444
89	0xbbb2a31d	-0.0054515735
90	0xbd881908	-0.06645399
91	0x3d04233d	0.03226017
92	0x3d882e08	0.06649405
93	0xbd66175e	-0.05617463
94	0xbd8a4ca2	-0.06752898
95	0x3d3f8da0	0.046765924
96	0xbbf62526	-0.0075117527
97	0xbcd498e7	-0.025951816
98	0x3be09e87	0.0068548354
99	0x3db535f8	0.08848184
100	0x3da89c3a	0.08232923
101	0xbb6042b8	-0.0034219455
102	0xbd421fbb	-0.04739354
103	0xbd43daeb	-0.0478162
104	0xbdb2965c	-0.08720085
105	0x3c4c99a7	0.012487805
106	0x3c559188	0.013035186
107	0xbd047c51	-0.03234512
108	0x3d178547	0.036992338
109	0x3d863097	0.065522365
110	0xbd338935	-0.043832023
111	0x3ae470cd	0.0017428637
112	0x3d808c68	0.0627678
113	0x3d38d512	0.045125075
114	0x3bf599d5	0.007495145
115	0xbac231b0	-0.0014815833
116	0xbdfd5801	-0.12370301
117	0x3c79c85c	0.015245523
118	0xbc53065e	-0.012879936
119	0xbd4a590c	-0.049401328
120	0x3aae4e55	0.0013298491
121	0xbdaffd27	-0.08593207
122	0xbd824681	-0.06361104
123	0xbd5dd5a2	-0.054158814
124	0x3d282222	0.041048177
125	0xbd7d22af	-0.061800655
126	0xbccee1ee	-0.025254216
127	0x3da95981	0.08269025
128	0x3d8b736a	0.06809123
129	0x3d2f4443	0.04278971
130	0x3d150569	0.036382113
131	0xbc953af9	-0.018216597
132	0x3df72e0d	0.1206933
133	0x3dcaff46	0.09911971
134	0x3ca5be7e	0.020232435
135	0xbb879db9	-0.004138675
136	0x3cfc99e7	0.030835105
137	0x3d1bd868	0.038048178
138	0xbd817aaa	-0.063222244
139	0xbd981da3	-0.07427528
140	0x3d6d035f	0.057864543
141	0xbd7b0571	-0.061284486
142	0xbd0de0ab	-0.03463809
143	0x3d9bb1f9	0.07602305
144	0xbc8d0761	-0.017215433
145	0x3db1830c	0.08667573
146	0x3c5d3ab5	0.013502766
147	0x3d057421	0.032581452
148	0xbb4b8d58	-0.003105959
149	0x3d814dbc	0.06313655
150	0x3d7f9073	0.062393617
151	0xbd7d1485	-0.061787147
152	0xbd00cc3a	-0.031444766
153	0xbce2470c	-0.027621768
154	0x3d181b1f	0.03713524
155	0xbd76562a	-0.060140766
156	0x3d59cbc7	0.053172853
157	0x3ccc5838	0.02494441
158	0x3c780e52	0.015140133
159	0x3db9db3d	0.090750195
160	0x3d58fa1e	0.052972905
161	0x3be26316	0.0069087846
162	0x3caae7fd	0.020862574
163	0x3d388f4c	0.045058534
164	0x3d57b42f	0.05266207
165	0x3c6e8f20	0.014560491
166	0xbd67c184	-0.056581035
167	0x3bc3f0fa	0.0059796544
168	0xbc203550	-0.009778336
169	0xbd3ec985	-0.046578903
170	0xbda44849	-0.080216
171	0xbc3e3d01	-0.011611224
172	0x3ccf5dfa	0.025313366
173	0xbda27190	-0.079318166
174	0xbcc56f25	-0.02410085
175	0xbce8b6e1	-0.028407516
176	0xbd27455b	-0.040837627
177	0x3d4b7cd5	0.049679596
178	0x3d5ace8e	0.053419642
179	0xbc80d502	-0.01572657
180	0xbc7e4318	-0.015518926
181	0x3d260f29	0.0405418
182	0x3d048ff3	0.032363843
183	0x3a203f03	0.0006112905
184	0xbd16ef75	-0.036849458
185	0xbd76a4a0	-0.060215592
186	0xbd720764	-0.05908908
187	0x3bed7fe1	0.0072479104
188	0xbcd249d6	-0.025669973
189	0x3d7a2bfe	0.06107711
190	0xba98cdda	-0.0011658028
191	0x3d0fd0cb	0.03511123
192	0xbd6a6de2	-0.0572337
193	0x3cd2aab5	0.025716165
194	0x3d3ca89c	0.046059236
195	0xbd06c4f6	-0.03290268
196	0x3da61483	0.08109381
197	0x3c380024	0.011230502
198	0xbda5f8a4	-0.08104065
199	0x3d1bdd40	0.038052797
200	0x3da9c9d0	0.08290446
201	0x3d069140	0.032853365
202	0xbc9b1e0f	-0.018935231
203	0xbb004ad5	-0.0019575853
204	0xbd719dc6	-0.058988355
205	0xbd035a8f	-0.032068785
206	0xbce0e1f8	-0.0274515
207	0xbd2ab8c6	-0.04168012
208	0x3daa91c1	0.083285816
209	0xbd051450	-0.032490075
210	0xbc1000f8	-0.0087892935
211	0xbd9d9262	-0.07693936
212	0xbd28bfaa	-0.04119841
213	0x3d8bedf3	0.068324946
214	0xbce099a7	-0.027417017
215	0x3d0e839e	0.03479349
216	0xbdb48bb7	-0.08815711
217	0xbd9a92a5	-0.075475015
218	0xbd9d9c21	-0.07695795
219	0xbca9c2cf	-0.020722775
220	0x3d7c9567	0.06166592
221	0xbd256614	-0.040380552
222	0xbd5181be	-0.051149122
223	0xbcab6dcb	-0.020926377
224	0x3cb7a3fe	0.022417065
225	0x3d3bcd10	0.04584986
226	0xbc738e26	-0.014865434
227	0x39772283	0.00023568612
228	0x3d92cbe5	0.07167796
229	0x3b8dc969	0.0043269885
230	0xbd97657f	-0.07392406
231	0x3ca73d38	0.020414934
232	0x3c172aaa	0.0092264805
233	0xbd80e11c	-0.06292936
234	0xbcc599f3	-0.02412126
235	0xbd822b87	-0.063559584
236	0x3d357a4c	0.044306085
237	0x3ce43ad5	0.027860085
238	0x3d3c566f	0.045980867
239	0x3cfe6e8e	0.031058576
240	0x3d882af0	0.06648815
241	0x3d58c2f1	0.052920286
242	0x3c19495d	0.00935587
243	0x3d22536a	0.03963033
244	0xbd85c79b	-0.06532212
245	0x3d2d71ea	0.042344965
246	0x3d30f912	0.043206282
247	0x3d9cf0bc	0.07663104
248	0x3c990682	0.018679861
249	0xbcec3de6	-0.02883811
250	0xbd1e3e2c	-0.03863351
251	0x3d13187b	0.03591202
252	0xbd068c1b	-0.03284846
253	0x3d77580e	0.06038671
254	0x3caa1075	0.0207598
255	0x3d515bb0	0.05111283

c2_2.c2.c2.bias f4 [16]
0	0xba657092	-0.0008752431
1	0xbd0227b4	-0.031776145
2	0x3d336891	0.043800894
3	0xbd0be0d4	-0.03414996
4	0x3d02bfe4	0.031921282
5	0x3d628dd1	0.055311028
6	0x3d0a302b	0.033737343
7	0xbd5546ce	-0.052069478
8	0x3d9ad5eb	0.07560333
9	0x3db3ab40	0.08772898
10	0x3b407d45	0.0029371541
11	0x3d0d58f5	0.034508664
12	0x3d887e28	0.066646874
13	0x3d83d7df	0.064376585
14	0xbd6258a3	-0.05526031
15	0x3b9488ab	0.0045328937

c3.c3.c3.weight f4 [120, 16, 5, 5]
0	0x3d214e37	0.039381232
1	0x3cea253d	0.02858221
2	0xbd64b6e7	-0.05583849
3	0xbbc0c9e2	-0.0058834413
4	0xbc31e56b	-0.01085792
5	0x3c5f67a8	0.013635553
6	0x3ccb2a96	0.02480058
7	0xbd286b7d	-0.041118134
8	0xbb6a5988	-0.0035758931
9	0x3cd8981c	0.026439719
10	0xbd0d869d	-0.034552205
11	0xbc720cc1	-0.014773549
12	0xbc601ed3	-0.013679224
13	0xbd04819e	-0.032350175
14	0x3d06f459	0.03294787
15	0xbaeab85f	-0.001790773
16	0x3d05470e	0.032538466
17	0x3d5e6d25	0.054303307
18	0x3cefb6fd	0.02926206
19	0xbd82b380	-0.06381893
20	0xbcfd0caf	-0.030889837
21	0xbc6320a1	-0.01386276
22	0xbc56532a	-0.013081351
23	0xbcfdb8ba	-0.030971874
24	0x3cae282d	0.021259392
25	0x3b84165c	0.0040309858
26	0xbc307cc6	-0.010771936
27	0x3c1766ce	0.009240819
28	0xbd66e325	-0.056368966
29	0xbc4636f6	-0.012098065
30	0x3c45785b	0.012052621
31	0x3b81f5bb	0.003966061
32	0x3c8e3baf	0.017362444
33	0x3d378fff	0.04481506
34	0x3c97f715	0.018550435
35	0xbbffaac9	-0.0078023416
36	0x3caace86	0.020850431
37	0xbbc41114	-0.005983481
38	0x3d211ffa	0.039337136
39	0x3ce58f6e	0.028022494
40	0xbd66f3b6	-0.056384765
41	0xbc76418a	-0.015030274
42	0x3d15cb8f	0.03657108
43	0x3d47bd5c	0.04876457
44	0x3cd1ad04	0.025595196
45	0x3b47689b	0.003042734
46	0xbc8e5d59	-0.017378496
47	0x3c503d84	0.012709979
48	0x3d5bb924	0.05364336
49	0xbd5924ec	-0.053013727
50	0x3ca54851	0.020176085
51	0x3c6e49c8	0.014543958
52	0xbd0235a6	-0.031789444
53	0xbd13682e	-0.035988025
54	0xbba6d45a	-0.0050912322
55	0xbca2cd7c	-0.019873373
56	0x3d0c053b	0.034184676
57	0x3c6fb096	0.014629504
58	0x3d3612fb	0.044451695
59	0xbc780ef5	-0.015140285
60	0xbcc894a4	-0.02448494
61	0x3d4b8975	0.049691636
62	0xbb3b3193	-0.0028563484
63	0x3d1ed5a9	0.03877798
64	0x3d42d2ab	0.04756419
65	0xbd2edd4e	-0.04269152
66	0xbc3210f2	-0.010868298
67	0x3bc8962a	0.0061214166
68	0x3c336f5f	0.010951846
69	0xbcbf9b92	-0.023389611
70	0x3b77e7b1	0.0037827308
71	0xbd24c2fa	-0.040225007
72	0x3d2eac91	0.04264504
73	0xbc2921c6	-0.010322994
74	0xba3a7dc6	-0.00071140786
75	0x3c2dab17	0.010599873
76	0xbd365a90	-0.04451996
77	0x3c3b420b	0.01142932
78	0xbc4fa74f	-0.012674167
79	0x3d0008f0	0.031258523
80	0x3d6395a9	0.05556265
81	0x3cfda25f	0.030961214
82	0xbcbf53c0	-0.023355365
83	0xbcff9da8	-0.031203106
84	0x3d4bf1d7	0.049791183
85	0x3d2df370	0.04246849
86	0x3d14a681	0.036291603
87	0xbcbd107f	-0.023079155
88	0x3ba90547	0.0051581
89	0x3d394743	0.045233976
90	0x3d5c583b	0.05379508
91	0x3db2a063	0.087219976
92	0xbd165e44	-0.036710992
93	0xbd4cf975	-0.05004259
94	0x3c976ea1	0.01848537
95	0xbc9587af	-0.018253176
96	0xbd44291b	-0.047890764
97	0x3c22127b	0.009892101
98	0xbd75ca9c	-0.060007676
99	0x3d123204	0.03569223
100	0xbcb9745a	-0.022638489
101	0xbd3038c1	-0.043022875
102	0xbc993753	-0.018703138
103	0xbd728cd5	-0.05921634
104	0x3bb4baf7	0.005515452
105	0xbd31ecf4	-0.043438867
106	0x3b684dd2	0.0035446775
107	0xbd09094e	-0.03345614
108	0xbc32c1da	-0.010910476
109	0xbcbe5a1f	-0.023236332
110	0xbc8ef755	-0.017451921
111	0x3b341818	0.0027480181
112	0xbbdecc48	-0.0067992546
113	0xbc2d064a	-0.010560581
114	0x3d3ba3e1	0.045810584
115	0x3d5b3be1	0.0535239
116	0xbd15cadb	-0.03657041
117	0x3c809f2a	0.015700895
118	0xbd449b31	-0.047999565
119	0x3bd7018a	0.006561463
120	0xbd47b0d7	-0.048752632
121	0xbca8cb96	-0.02060489
122	0xbd141e39	-0.036161635
123	0x3d3ce3be	0.04611563
124	0xbb3ff9de	-0.002929322
125	0xba92ee20	-0.0011209883
126	0x3b17ac35	0.0023143415
127	0xbd544380	-0.051822186
128	0xbbed37f8	-0.007239338
129	0x3d1841d9	0.037172172
130	0xbbff8302	-0.0077976
131	0x3bc7cdcb	0.0060975305
132	0xbbb8e109	-0.0056420607
133	0x3ce2920c	0.027657531
134	0x3c75dad1	0.015005783
135	0xbc71cc31	-0.014758156
136	0x3d1ad764	0.03780307
137	0x3d10b5b1	0.035329524
138	0x3cefc60d	0.029269243
139	0x3d1ab151	0.03776676
140	0x3d6cd55a	0.057820655
141	0x3d28bcae	0.041195564
142	0x3d0128d2	0.03153307
143	0xbaea0ddb	-0.0017856912
144	0xbcee34c2	-0.029077891
145	0xbd0e1c49	-0.034694944
146	0x3d0fbdee	0.03509324
147	0xbc6a9d95	-0.014319797
148	0xbd901ec5	-0.07037119
149	0xbb64adec	-0.0034893705
150	0x3d0e5d80	0.034757137
151	0xbd0bbe91	-0.034117285
152	0x3c750188	0.014953978
153	0x3d0e947e	0.034809582
154	0x3d2d7846	0.04235103
155	0xbb946f7f	-0.004529893
156	0x3cdbe254	0.02684132
157	0x3d4d44e2	0.05011452
158	0x3c4fc700	0.012681723
159	0xbd03e9cd	-0.03220539
160	0x3ce440f7	0.027863009
161	0x3b602bc3	0.0034205772
162	0xbc9a75ac	-0.018854938
163	0x3d04de2f	0.032438453
164	0xbd07866b	-0.033087175
165	0xbbc21295	-0.0059226253
166	0x3c8f6fc0	0.017509341
167	0x3d0c4b04	0.034251228
168	0x3baa68b1	0.0052004685
169	0x3b2fdb29	0.002683351
170	0xbce1df91	-0.027572425
171	0xbd855951	-0.065111764
172	0xbcd6d0e6	-0.026222657
173	0x3d72a209	0.05923656
174	0x3b6abada	0.0035816939
175	0x3d2a5873	0.041588258
176	0x3d26f10a	0.040757217
177	0x3d2ccc64	0.04218711
178	0x3d15e6d6	0.036597095
179	0x3d1b33f1	0.037891332
180	0x3d1ab435	0.037769515
181	0xbbf82953	-0.0075732856
182	0x3cba1bb8	0.022718295
183	0xbd51615a	-0.051118232
184	0x3d2e832e	0.04260557
185	0xbd8521a6	-0.065005586
186	0xbd90d509	-0.07071883
187	0xbd5b0614	-0.053472593
188	0xbd19d20d	-0.037553836
189	0x3cf0ca39	0.029393302
190	0xbac34d6f	-0.0014900396
191	0x3d779b1f	0.06045067
192	0x3d6c9ff0	0.057769716
193	0x3cb9fb7a	0.022702921
194	0x3d05fe90	0.032713473
195	0xbc1fc594	-0.009751696
196	0x3d4d0e59	0.05006251
197	0x3c679574	0.0141347535
198	0x3c368350	0.011139706
199	0x3d113e4d	0.035459805
200	0x3c08850e	0.008332504
201	0x3d1d57ae	0.038413696
202	0x3b387ad8	0.0028149392
203	0x3d2efc6d	0.0427212
204	0x3cfdfccc	0.031004332
205	0xbc19ebb4	-0.009394575
206	0x3ca7e437	0.020494564
207	0xbc826c66	-0.015920829
208	0x3d84f4bb	0.06491991
209	0x3d0b97ce	0.03408032
210	0x3d8aad9c	0.067713946
211	0x3d848df6	0.064723894
212	0x3c877260	0.01653403
213	0xbc072b76	-0.008250108
214	0x3b4cf9fb	0.003127693
215	0x3d184422	0.03717435
216	0xbd1a3b3e	-0.037654154
217	0xbd5df827	-0.054191735
218	0xbcdc0ee1	-0.026862564
219	0x3c46b8b1	0.012128995
220	0xbc537d62	-0.012908312
221	0x3b3de521	0.0028975683
222	0x3d4bcf81	0.049758438
223	0xbc3374c2	-0.01095313
224	0xba9c5b9e	-0.001192916
225	0x3d079492	0.033100672
226	0x3cde322f	0.027123539
227	0x3ccda6b7	0.02510391
228	0xbd45024d	-0.048097897
229	0xbc20693b	-0.009790714
230	0xbad9b931	-0.0016610977
231	0x3ceea19a	0.029129792
232	0x3d34113e	0.043961756
233	0x3d03e0fc	0.032196984
234	0x3c6bfc3a	0.014403397
235	0x3d551679	0.052023385
236	0xbc929437	-0.01789294
237	0xbcbcab32	-0.023030851
238	0x3c393530	0.011304185
239	0xbd1dc108	-0.038514167
240	0xbc83cce5	-0.016088912
241	0xbd01b645	-0.031667966
242	0x3d6baaee	0.057536058
243	0xbc639098	-0.013889454
244	0xbc58fe75	-0.013244261
245	0x3c5f34fb	0.013623471
246	0x3d46b429	0.048511658
247	0x3d456c89	0.04819921
248	0xbc063158	-0.008190475
249	0xbd030576	-0.03198763
250	0x3bf6b381	0.0075287228
251	0xbca1c680	-0.019747972
252	0xbcd4bc81	-0.025968792
253	0x3c29ddcc	0.010367822
254	0xbd2b4794	-0.04181631
255	0xbcb73e9a	-0.022368718

c3.c3.c3.bias f4 [120]
0	0x3d2cfce7	0.042233374
1	0x3cb15da4	0.021651097
2	0x3ce269d0	0.027638346
3	0x3ce3dbba	0.027814735
4	0x3d2448d0	0.040108502
5	0x3d358d89	0.04432443
6	0x3d0ce1c6	0.034395
7	0x3b892ea1	0.004186467
8	0xbc3c5c3e	-0.011496602
9	0xbc2d30d8	-0.010570727
10	0xba215f31	-0.0006155847
11	0x3d45f088	0.04832509
12	0xbb851f2a	-0.004062553
13	0xbc578f73	-0.01315676
14	0xbd0c1d55	-0.03420766
15	0xbd16d5e3	-0.036825072
16	0xbce410e5	-0.027840087
17	0x39bab163	0.00035608848
18	0xbab1c5ba	-0.0013562955
19	0x3cc481f0	0.02398774
20	0xbc31c807	-0.010850913
21	0xbc83e973	-0.016102528
22	0x3bf8a6e0	0.0075882524
23	0xbce69e7d	-0.028151745
24	0xbd155aeb	-0.03646366
25	0xbd067ee2	-0.03283585
26	0xbd2c8e87	-0.042128112
27	0xbbf54342	-0.0074848244
28	0xbd0213d4	-0.03175719
29	0xba769098	-0.00094057014
30	0xb95da808	-0.00021138799
31	0xbcf9d1fd	-0.030495638
32	0x3d142565	0.036168475
33	0x3b83ab08	0.0040181912
34	0x3ce5bd71	0.028044434
35	0xbcf1282c	-0.0294381
36	0x3d1b17bf	0.037864443
37	0x3cd26959	0.025685
38	0xbc82fb93	-0.0159891
39	0x3bae4d36	0.005319263
40	0xbca9fac8	-0.020749465
41	0x3c3b103b	0.011417444
42	0xbca06b3a	-0.01958238
43	0xbceb17d9	-0.028697895
44	0x3ce87302	0.028375152
45	0xba83d1e5	-0.001005706
46	0x3d0cf83e	0.03441643
47	0xbd2b2db3	-0.04179163
48	0xbcbcdd3f	-0.023054717
49	0x3c96b3b3	0.018396234
50	0xbc15b3fd	-0.009137151
51	0x3cdd29bd	0.026997441
52	0x3cbbcd70	0.022925109
53	0xbced3f2a	-0.028960783
54	0x3d380436	0.04492589
55	0xbd304fd7	-0.04304489
56	0xbc58f2cc	-0.013241481
57	0xbb8fe1d0	-0.0043909326
58	0x3d163a79	0.036676858
59	0xbcd8c414	-0.026460685
60	0xbd49ca46	-0.04926517
61	0xbd4981de	-0.049196117
62	0xbc863e89	-0.016387241
63	0xbd0fa8f4	-0.035073236
64	0x3ad64e98	0.0016350327
65	0x3cc5f946	0.024166714
66	0x3d35a053	0.04434235
67	0xbc872ab0	-0.016499847
68	0xbcacc54f	-0.021090178
69	0xbc6cba8f	-0.014448776
70	0x3c236b6f	0.009974345
71	0x3cc528b3	0.024067258
72	0xbb1cc4d9	-0.0023921041
73	0xbd477801	-0.04869843
74	0x3d2b3a08	0.04180339
75	0x3ccde9a8	0.02513583
76	0x3c89a0f6	0.016800385
77	0xbcbcb0ea	-0.023033578
78	0xbaa8729f	-0.0012851543
79	0x3bcf8a2d	0.0063336105
80	0x3cd283a9	0.025697546
81	0xbceba0f4	-0.028763272
82	0x3a4eaa29	0.0007883632
83	0x3d0e3488	0.034718066
84	0x3d084b24	0.033274785
85	0xbcc5633d	-0.024095172
86	0xbd0d782a	-0.034538426
87	0x3bbc4c4d	0.0057464004
88	0x3d081439	0.03322241
89	0x3c6d27b3	0.014474797
90	0x3d1905f8	0.037359208
91	0x3d13b588	0.036061794
92	0x3ca756ff	0.020427225
93	0xbbde6826	-0.006787318
94	0x3cae5450	0.021280438
95	0x3d1ac789	0.037787948
96	0xba538e8c	-0.00080702524
97	0xbd1fb052	-0.03898651
98	0xb95f7c99	-0.00021313353
99	0x3c887a48	0.01665987
100	0x392c490e	0.00016430413
101	0x3c2bc0aa	0.010482946
102	0x3d26a8f6	0.040688477
103	0x3d2ba224	0.041902676
104	0xbcef5ff4	-0.029220559
105	0xbc0fed4c	-0.008784603
106	0xbb919756	-0.0044430895
107	0xbcb6900c	-0.022285484
108	0xbcbc1054	-0.022957005
109	0x3d2cb885	0.04216816
110	0x3a1db7eb	0.00060164806
111	0xbd041d92	-0.032254763
112	0x3c25dcff	0.01012349
113	0xbbaa9afb	-0.0052064634
114	0xbd0d8891	-0.034554068
115	0x3c5cee4c	0.013484549
116	0xbc7536f5	-0.014966716
117	0xbc23bbc3	-0.009993496
118	0x3c095703	0.008382562
119	0xbce14699	-0.027499484

f4.f4.f4.weight f4 [84, 120]
0	0xbe12071c	-0.14260525
1	0x3d1499fc	0.036279663
2	0x3dc23d81	0.09484387
3	0xbca54070	-0.020172328
4	0x3d2bbaf9	0.041926358
5	0xbe080f70	-0.13287139
6	0xbaa0ec7e	-0.0012277511
7	0xbdc72835	-0.09724466
8	0xbdf07341	-0.11740733
9	0x3c402596	0.011727711
10	0x3d946847	0.07246452
11	0x3c685dfc	0.014182564
12	0xbd0cb2ab	-0.03435008
13	0xbd0f396c	-0.03496687
14	0xbe087eda	-0.1332964
15	0x3c81b0f8	0.015831456
16	0x3d2ecde1	0.04267681
17	0x3d5688ac	0.052376434
18	0x3d437977	0.04772326
19	0xbdb34106	-0.087526366
20	0x3c275c1e	0.010214834
21	0xbdaeefe3	-0.085418485
22	0xbd7e6bdd	-0.062114585
23	0x3d5e7d41	0.05431867
24	0x3daf7d93	0.08568873
25	0xbd12b3ca	-0.03581599
26	0xbd6df035	-0.058090407
27	0x3ca2101e	0.019783076
28	0x3e131af1	0.14365746
29	0x3d8b586b	0.06803974
30	0x3d5e1b01	0.05422497
31	0x3dae38a4	0.08506897
32	0x3deb9668	0.11503297
33	0xbd5c94be	-0.05385279
34	0xbd38dd33	-0.045132827
35	0x3d919820	0.07109094
36	0x3c8db19a	0.017296601
37	0x3db6fd38	0.089350164
38	0xbe1009ca	-0.14066234
39	0xbc326f2b	-0.010890762
40	0x3dcc63e6	0.099799916
41	0x3d3762c8	0.04477194
42	0xbc447bdc	-0.011992421
43	0x3da82d49	0.082117625
44	0xbdcdd882	-0.10051061
45	0xbd8fef5d	-0.07028077
46	0xbd2a9978	-0.041650265
47	0x3d673074	0.056442693
48	0xbd69b7ff	-0.057060238
49	0xbb3b68ae	-0.002859633
50	0x3d32db40	0.043666124
51	0xbcb16dab	-0.02165874
52	0x3d732e55	0.059370358
53	0x3b1aca36	0.0023619062
54	0x3d1dbf81	0.03851271
55	0x3c5a451c	0.013322141
56	0x3d802182	0.06256391
57	0x3e1a9ca8	0.15098822
58	0x3ac89479	0.0015303037
59	0x39a3de66	0.00031255482
60	0x3d8a1b98	0.06743544
61	0x3ce21a76	0.027600508
62	0xbd7ccec0	-0.06172061
63	0x3dd0e46b	0.10199817
64	0xbd2feaee	-0.042948656
65	0x3c3089ac	0.010775011
66	0x3da74c12	0.08168806
67	0x3d494146	0.049134515
68	0x3c94c5b7	0.018160684
69	0xbd59b512	-0.053151198
70	0x3c11ccc3	0.008898917
71	0x3d4f190d	0.050561
72	0xbd6e1ce5	-0.058133025
73	0x3ccf7404	0.025323875
74	0xbd87a262	-0.06622769
75	0x3ddd85da	0.10816546
76	0xbd4f7784	-0.05065109
77	0xbdf28fb2	-0.11843814
78	0x3d91c656	0.07117908
79	0x3d50d348	0.050982744
80	0xbdd8bc49	-0.105827875
81	0xbd56e026	-0.05245986
82	0xbdbaf262	-0.09128262
83	0x3cec7ac7	0.028867139
84	0x3d723f63	0.05914248
85	0xbd834098	-0.06408805
86	0x3d4c5ffa	0.049896218
87	0x3ce0f808	0.02746202
88	0xbd1cb382	-0.03825713
89	0xbc960d60	-0.018316925
90	0xbdf36202	-0.11883928
91	0xbd29beb8	-0.04144165
92	0x3b50c595	0.003185605
93	0xbd71c435	-0.05902501
94	0xbd6b0821	-0.0573808
95	0x3d55d327	0.052203324
96	0xbd151cb7	-0.036404338
97	0x3d605056	0.054764114
98	0x3dbe9b60	0.09306979
99	0xbd32b4e4	-0.043629542
100	0x3d983ba6	0.07433252
101	0xbdb66a87	-0.08907037
102	0x3e01cf0b	0.12676637
103	0xbd135734	-0.035971835
104	0x3c716c82	0.014735343
105	0x3db19c78	0.08672422
106	0x3daaa52f	0.083322875
107	0x3d83ec34	0.064415365
108	0xbd8e0136	-0.06933825
109	0xbd1135a6	-0.035451554
110	0x3cd54918	0.02603583
111	0xbdabb697	-0.083844356
112	0xbd525f4e	-0.05136042
113	0x3cb268fe	0.02177858
114	0x3db0874d	0.086195566
115	0x39851288	0.00025381544
116	0x3e0e1f5b	0.13879149
117	0x3d92e0c9	0.071717806
118	0x3de0b033	0.10971107
119	0x3d33b6d7	0.04387554
120	0x3d4662ee	0.04843419
121	0xbd160e8c	-0.036634967
122	0x3dc9d1fb	0.09854504
123	0x3c7a3e41	0.015273632
124	0x3da9785e	0.08274911
125	0xbdb5b636	-0.088726446
126	0xbda2e4f0	-0.079538226
127	0xbccd5317	-0.025064034
128	0x3cd3b330	0.02584228
129	0x3d9e0b0f	0.07716953
130	0x3bd86744	0.006604107
131	0xbc36afbd	-0.011150298
132	0x3dbb6657	0.09150379
133	0xbd933317	-0.07187479
134	0x3d55666d	0.052099634
135	0xbdc127f6	-0.0943145
136	0xbd79dcb8	-0.06100151
137	0x3cfc6528	0.030809954
138	0xbd709e51	-0.058744732
139	0xbd493747	-0.049124982
140	0xbcbf79d1	-0.023373516
141	0x3d241db1	0.04006738
142	0x3cbb9df0	0.022902459
143	0xbd937665	-0.07200316
144	0x3dab33ac	0.08359465
145	0x3d881a12	0.066455975
146	0xbd38bbcd	-0.045100976
147	0x3b59f342	0.0033256565
148	0xbd25644a	-0.040378846
149	0x3cffc98d	0.031224037
150	0x3d5a0004	0.05322267
151	0xbca2cc17	-0.019872708
152	0x3dd6c72f	0.1048721
153	0x3d69b615	0.057058413
154	0x3d045025	0.032302994
155	0xbdafb903	-0.0858021
156	0x3d1c0200	0.038087845
157	0xbd0162cb	-0.031588357
158	0xbd137597	-0.036000814
159	0x3dd2a45f	0.102852575
160	0xbcc080e9	-0.02349897
161	0xbd63f2fb	-0.055651646
162	0xbd5f1a63	-0.054468524
163	0x3c42d93e	0.011892615
164	0xbc70ed18	-0.014704965
165	0xbd004ed8	-0.03132519
166	0xbd448100	-0.047974586
167	0xbdae45fb	-0.085094415
168	0xbd10e3e9	-0.035373602
169	0x3cfa6da9	0.030569868
170	0xbca4c398	-0.020112798
171	0xbd3392fd	-0.04384135
172	0xbbf9e3fb	-0.0076260543
173	0x3cf89768	0.030345634
174	0x3c99f5f0	0.01879403
175	0xbbd7947b	-0.0065789795
176	0xbdb9b22f	-0.09067189
177	0x3deab955	0.114611305
178	0x3d497a27	0.04918876
179	0x3cf1eb8c	0.029531263
180	0x3cfbbae1	0.03072876
181	0x3aed9d20	0.0018128492
182	0xbc100804	-0.008790974
183	0x3d2140dd	0.0393685
184	0xbd784dea	-0.06062118
185	0x3d89fc34	0.06737557
186	0xbda20666	-0.07911377
187	0xbd750a5c	-0.059824333
188	0x3d78fe1a	0.060789205
189	0x3dafd44e	0.08585416
190	0xbd14b8c4	-0.03630902
191	0xbd25eb90	-0.040507853
192	0x3d8f2e48	0.06991249
193	0x3d3e26a6	0.046423577
194	0x3d00ec80	0.031475544
195	0x3d64cb6e	0.05585807
196	0xbd9ebd46	-0.07750945
197	0xbd17a526	-0.037022732
198	0xbc8c3921	-0.017117085
199	0x3bd96bdd	0.0066351728
200	0xbcf1b98e	-0.029507425
201	0x3d2cfe44	0.042234674
202	0xbd53e53d	-0.05173229
203	0x3dbcb6b7	0.092145376
204	0x3c6804bb	0.014161284
205	0x3c7b42cf	0.015335753
206	0xbd98b2d6	-0.07455985
207	0xbceeecb4	-0.029165603
208	0x3cd023f3	0.025407767
209	0xbb8b40e9	-0.0042496813
210	0xbd225235	-0.03962918
211	0xbd78d7cd	-0.06075268
212	0xbd07644c	-0.033054635
213	0x3d3c0fc7	0.045913484
214	0x3d2853af	0.041095432
215	0xbda16250	-0.0788008
216	0xbd935158	-0.071932495
217	0xbc312ead	-0.010814351
218	0xbd035fc6	-0.03207376
219	0x3d583425	0.052784104
220	0xbce4a416	-0.027910274
221	0xbd108671	-0.035284463
222	0x3c1fa4c8	0.009743877
223	0x3dcf8895	0.10133473
224	0xbd704dcd	-0.058667947
225	0x3d4afd99	0.049558256
226	0xbd60180e	-0.05471044
227	0xbc6b3762	-0.014356466
228	0x3db5aa30	0.08870351
229	0x3d3ba210	0.04580885
230	0xbc2ac0fa	-0.010421986
231	0x3d8a4597	0.067515545
232	0x3ca19815	0.019725839
233	0xbceb6aa5	-0.028737376
234	0x3cc5a4b3	0.024126386
235	0x3aed1e5a	0.001809071
236	0x3cfcd77f	0.030864475
237	0xbd71963f	-0.058981176
238	0x3dd06283	0.101750396
239	0xbc090b3f	-0.008364498
240	0x3cc8534e	0.024453785
241	0x3c564f2f	0.013080402
242	0x3c7fe647	0.015618867
243	0x3d0def1c	0.03465186
244	0x3db16319	0.086614795
245	0x3dc44abf	0.09584569
246	0xbd59b6cd	-0.053152848
247	0x3d9b5909	0.075853415
248	0x3dbc8c48	0.09206444
249	0x3d2b3434	0.04179783
250	0x3d0ea6cf	0.03482705
251	0xbd8b77e5	-0.068099774
252	0x3d8969df	0.067096464
253	0x3ca23392	0.019799981
254	0x3d936674	0.07197276
255	0xbaac25b0	-0.001313379

f4.f4.f4.bias f4 [84]
0	0xbd8a856f	-0.06763732
1	0xbda10f67	-0.07864266
2	0x3cb90229	0.022584038
3	0x3d72f227	0.059312966
4	0xbd6b2d4d	-0.05741625
5	0xbcea2206	-0.028580677
6	0xbdb12c1d	-0.08650992
7	0x3d92975b	0.07157775
8	0xbd786e21	-0.060651902
9	0x3d7ffd4e	0.06249743
10	0x3d9b4111	0.0758077
11	0xbca832a8	-0.020531967
12	0x3da69aa5	0.08134965
13	0xbc884363	-0.016633695
14	0xbcc54198	-0.02407913
15	0xbd21547c	-0.03938721
16	0x3c91860e	0.017764118
17	0x3d3a65da	0.04550729
18	0xbdaa500d	-0.0831605
19	0x3d21a6d2	0.039465733
20	0xbd930855	-0.071793236
21	0x3da96246	0.08270697
22	0x3ca94dda	0.020667005
23	0x3d56bc1e	0.052425496
24	0xbda91b1a	-0.08257122
25	0x3d390f2a	0.045180477
26	0xbc6545d2	-0.013993697
27	0xbd6d216f	-0.057893213
28	0xbca9d76c	-0.020732604
29	0xbcd8e471	-0.026476117
30	0xbd8f3bb6	-0.06993811
31	0xbc9a5583	-0.018839603
32	0x3bdf7348	0.0068191625
33	0xbd47d393	-0.048785757
34	0xbca7b156	-0.020470303
35	0x3da84d5e	0.082178816
36	0x3ced2197	0.028946681
37	0x3d18a203	0.03726388
38	0x3dad9e14	0.08477417
39	0x3d85ebf2	0.065391436
40	0xbcda9a25	-0.02668483
41	0x3c0749af	0.008257314
42	0xbd197721	-0.037467126
43	0x3cd9de31	0.026595207
44	0xba780bf2	-0.0009462229
45	0x3be886f1	0.0070961644
46	0x3c5dff65	0.01354966
47	0x3d23aaf3	0.03995795
48	0x3d8e5204	0.06949237
49	0xbc034273	-0.008011448
50	0xbcba4508	-0.022737995
51	0xbdb6dbeb	-0.08928665
52	0x3b08218b	0.0020771946
53	0xbd57dd3b	-0.052701216
54	0xbdb2b027	-0.08725005
55	0xbcebed5b	-0.028799703
56	0xbce3e95f	-0.027821241
57	0xbd72ce02	-0.059278496
58	0x3d2b0893	0.041756224
59	0x3d939ebc	0.072080106
60	0xbd554943	-0.05207182
61	0xbcbf3260	-0.02333945
62	0x3d471409	0.04860309
63	0x3ccaea4f	0.02476993
64	0xbda2db82	-0.07952024
65	0x3d672cfa	0.056439377
66	0x3c133ec6	0.008987134
67	0xbd469187	-0.04847863
68	0xbd119ad7	-0.035548057
69	0x3d43f4bd	0.047840822
70	0x3d907baf	0.07054841
71	0x3ce09617	0.027415318
72	0xbc61fdc0	-0.013793409
73	0x3d93a8ae	0.072099075
74	0xbd7df187	-0.061997917
75	0xbcb99d0b	-0.022657892
76	0x3d8a7c7c	0.06762025
77	0x3dcc2d7e	0.099696144
78	0xbd9b89c9	-0.0759464
79	0x3d6c76b9	0.05773041
80	0xbc3e6b5a	-0.011622274
81	0x3db8b6aa	0.090192154
82	0x3da18762	0.0788715
83	0x3da493b2	0.08035983

f5.f5.f5.weight f4 [10, 84]
0	0xbe468562	-0.19386819
1	0x3c30429c	0.010758068
2	0xbe09f59c	-0.13472599
3	0xba4809bc	-0.0007630845
4	0xbd9e0315	-0.077154316
5	0xbda0bda5	-0.07848672
6	0x3cbc0e78	0.022956118
7	0xbcbb2ba9	-0.022847967
8	0xbe03db7c	-0.12876695
9	0xbe1b23f9	-0.15150441
10	0x3dbfd38b	0.093665205
11	0x3db9efe7	0.09078961
12	0xbd8d1c26	-0.068901345
13	0x3d469113	0.048478197
14	0x3c13740c	0.008999836
15	0xbe1f566f	-0.15560316
16	0xbc74de4b	-0.014945577
17	0xbcb5a94f	-0.02217546
18	0xbdf83f93	-0.12121501
19	0xbde49c3f	-0.11162614
20	0xbd3180ae	-0.04333561
21	0x3d9af4d3	0.07566228
22	0xbded3406	-0.11582188
23	0x3d9efd93	0.07763209
24	0x3dac29f0	0.084064364
25	0x3d0fe739	0.03513262
26	0xbde33b88	-0.11095339
27	0x3db55ea5	0.08855943
28	0x3d672980	0.05643606
29	0x3e3241a1	0.17407848
30	0xbcc1a1a0	-0.02363664
31	0xbdb79fe3	-0.08966043
32	0xbdcebd73	-0.10094728
33	0x3dacf620	0.08445382
34	0x3da89d88	0.08233172
35	0xbdab70f0	-0.083711505
36	0x3e64c22e	0.22339699
37	0x3d47272e	0.04862135
38	0xbcb6f8ec	-0.022335492
39	0x3de31c04	0.11089328
40	0xbc6da434	-0.014504481
41	0x3cdfdd0a	0.02732708
42	0xbce3ccb3	-0.02780757
43	0x3e08206b	0.13293616
44	0xbdd6a40a	-0.10480507
45	0x3c3e6f93	0.011623281
46	0x3e28be17	0.16478764
47	0x3d54e22d	0.05197351
48	0x3dd4241e	0.10358451
49	0xbdad4efb	-0.0846233
50	0xbd05d083	-0.032669555
51	0xbcc998dd	-0.024609024
52	0xbc9e93b7	-0.019357545
53	0xbd8208aa	-0.06349309
54	0xbdb6d1ea	-0.08926757
55	0x3dbec7ef	0.09315478
56	0xbc681e2e	-0.014167352
57	0x3d972f8f	0.07382118
58	0x3de16a52	0.11006607
59	0xbdea060b	-0.11426934
60	0x3e0d23a7	0.13783132
61	0xbc350c43	-0.011050287
62	0x3cbb4f43	0.022864943
63	0x3e0ecefa	0.13946143
64	0x3d442819	0.047889803
65	0x3cde28d1	0.027119072
66	0xbe093675	-0.1339968
67	0xbca91148	-0.020638123
68	0x3cb49575	0.022043923
69	0xbc913398	-0.017724797
70	0xbd9bfe32	-0.07616843
71	0x3d0753fd	0.03303908
72	0x3e23e4b0	0.16005206
73	0x3d32afe5	0.043624777
74	0x3caa9b5a	0.02082603
75	0x3db4fdbd	0.08837459
76	0x3e497435	0.19673236
77	0xbd89f13d	-0.06735466
78	0xbd1f3629	-0.03887001
79	0xbdb37049	-0.08761651
80	0xbe344737	-0.17605291
81	0x3db96ae5	0.09053592
82	0xbdcdf0fa	-0.10055728
83	0x3c2a0ce6	0.010379052
84	0x3d9f08ae	0.077653274
85	0x3deb53d6	0.114906
86	0xbd9a8e31	-0.07546652
87	0x3e4db0e7	0.20087014
88	0x3c93c6aa	0.018039066
89	0xbdc85d30	-0.09783399
90	0x3dbf0505	0.09327129
91	0xbda813f8	-0.08206934
92	0xbdea7aac	-0.11449179
93	0xbd71ffdd	-0.0590819
94	0x3b21b9aa	0.0024677315
95	0x3df8a098	0.12140006
96	0xbda5594f	-0.08073675
97	0x3e0d6a22	0.13810018
98	0x3d62c663	0.055364978
99	0x3e1bf0d9	0.15228595
100	0x3e0e2b9b	0.13883822
101	0x3e179192	0.14801624
102	0xbd6fa8f7	-0.058510747
103	0x3e39a0c9	0.18127741
104	0x3cfad843	0.0306207
105	0xbcb9d9d1	-0.02268687
106	0xbdca826f	-0.098881595
107	0xbd64857c	-0.055791363
108	0x3ce090fd	0.027412886
109	0x3e3534c4	0.1769591
110	0xbb8f7603	-0.0043780818
111	0xbe427091	-0.18988253
112	0x3da97399	0.08274002
113	0xbe475b11	-0.19468333
114	0x3d766225	0.06015219
115	0x3dd31942	0.10307552
116	0x3d148271	0.03625721
117	0xbdf7b959	-0.12095899
118	0x3e2dcc90	0.16972566
119	0xbc83c208	-0.016083732
120	0xbbecffb1	-0.007232629
121	0x3d7c49a8	0.06159368
122	0x3c36f631	0.011167095
123	0xbd3ea2f5	-0.046542127
124	0xbc6c52c8	-0.014424033
125	0x3d627375	0.05528589
126	0xbdb51aa1	-0.0884297
127	0x3e019643	0.12654977
128	0x3d8dc011	0.069213994
129	0x3e05eb1c	0.13077968
130	0xbd853d02	-0.06505777
131	0xbd84a2c5	-0.06476358
132	0xbe28de79	-0.16491117
133	0x3d52f29b	0.051500898
134	0x3dcdda92	0.100514546
135	0xbc64e70b	-0.013971101
136	0x3dd4d56e	0.10392271
137	0xbd2d145f	-0.042255756
138	0x3e30db87	0.17271243
139	0x3d804c4e	0.06264554
140	0xbbe8b7b4	-0.0071019772
141	0xbd9311df	-0.07181143
142	0x3da4dac2	0.08049537
143	0x3d2a9112	0.041642256
144	0xbdbe56b7	-0.09293883
145	0xbdc04008	-0.09387213
146	0xbd8ba1f7	-0.06818002
147	0x3dba6624	0.09101513
148	0x3ddcbe8c	0.107785314
149	0xbd6e615b	-0.058198314
150	0xbe13832e	-0.1440551
151	0xbd2b7e31	-0.041868392
152	0x3db5cb59	0.08876676
153	0x3cf8292c	0.03029307
154	0x3e4122f9	0.18860997
155	0xbdd05974	-0.10173312
156	0xbe0c4e37	-0.13701712
157	0xb9b38bfc	-0.00034245837
158	0x3dca6932	0.09883346
159	0x3dc40272	0.09570779
160	0xbc6fbf8c	-0.014633071
161	0x3e3675f4	0.17818433
162	0x3d1730a0	0.036911607
163	0xbd92f5a1	-0.07175756
164	0xbd82ea22	-0.063923135
165	0x3d2d1c3e	0.042263262
166	0xbdffb205	-0.124851264
167	0x3d07a3ef	0.033115324
168	0x3e4d764f	0.20064662
169	0x3e109fce	0.1412346
170	0x3de734b5	0.1128935
171	0x3d0da5c4	0.034581915
172	0xbdc151e1	-0.09439445
173	0xbddf43ea	-0.109016255
174	0x3d46f02f	0.0485689
175	0xbddabea9	-0.10680897
176	0x3debab8e	0.11507331
177	0xbddbeaaa	-0.10738118
178	0xbda71c2d	-0.08159671
179	0x3d83fe5e	0.06445001
180	0x3d8cb12a	0.06869729
181	0x3cc67eb8	0.024230346
182	0xbd7774dc	-0.06041418
183	0xbdee9f77	-0.11651509
184	0xbd8053f4	-0.06266013
185	0x3bc193ef	0.0059075276
186	0xbe485daa	-0.1956698
187	0xbd491685	-0.049093742
188	0xbe121790	-0.14266801
189	0xbe03854a	-0.12843814
190	0x3e4f8117	0.20264088
191	0x3e694031	0.22778393
192	0x3d6b944a	0.057514466
193	0xbd80be4f	-0.062862985
194	0xbd4767c2	-0.048682936
195	0xbcf7735e	-0.030206379
196	0x3d396921	0.045266274
197	0x3c854d6c	0.01627227
198	0xbb9cf637	-0.0047900933
199	0xbd9cd2fc	-0.076574296
200	0xbcfa72af	-0.030572264
201	0x3d0562e8	0.032565027
202	0xbca791ac	-0.020455204
203	0x3d3e941a	0.04652796
204	0x3cf75915	0.030193845
205	0x3d513719	0.051077936
206	0x3e1f57a5	0.15560777
207	0x3e415c81	0.18882944
208	0x3d0af6ea	0.03392688
209	0x3c9fc267	0.019501878
210	0xbd2af591	-0.041738097
211	0x3d87eb47	0.066366725
212	0xbe0fda96	-0.14048228
213	0x3befb6a2	0.0073154727
214	0xbc21df8d	-0.009879959
215	0xbdce3f52	-0.10070671
216	0xbdc82f47	-0.097746424
217	0x3c291092	0.010318892
218	0x3d5c8c1a	0.05384455
219	0xbd9c223d	-0.07623718
220	0x3d13dbf7	0.036098447
221	0xbc9d87dc	-0.019229822
222	0x3d650d27	0.055920746
223	0x3dcc7374	0.099829584
224	0x3e0e155d	0.13875337
225	0x3d8258e7	0.06364613
226	0x3bfe7f6d	0.007766655
227	0x3e06505a	0.13116589
228	0x3d6c0ec5	0.057631273
229	0xbcbc1076	-0.022957068
230	0x3c273805	0.010206227
231	0xbd21ace2	-0.039471515
232	0xbd40ad12	-0.047040053
233	0x3df098b9	0.117478795
234	0x3de01b79	0.1094274
235	0xbde4f708	-0.1117993
236	0x3c802efc	0.015647404
237	0xbd3272a9	-0.04356638
238	0x3ddd2d6c	0.10799679
239	0x3d7016e4	0.05861558
240	0xbd6ac4c5	-0.05731656
241	0x3e4a47ad	0.19753905
242	0x3d0a4f35	0.033766944
243	0x3d8e6407	0.069526725
244	0x3ccea792	0.025226388
245	0xbd85d49f	-0.06534695
246	0x3daf122c	0.08548388
247	0x3d9f17a2	0.077681795
248	0x3da60dae	0.08108078
249	0x3d03d34f	0.03218394
250	0xbddfc619	-0.10926456
251	0xbe004c2d	-0.12529059
252	0x3e91679f	0.2839937
253	0x3e07a250	0.13245511
254	0xbe3944e9	-0.18092693
255	0xbdc8229e	-0.09772228

f5.f5.f5.bias f4 [10]
0	0x3db5aea5	0.088712014
1	0x3dc33f1a	0.0953352
2	0xbdb3d1b4	-0.08780232
3	0x3d3fa5cd	0.04678898
4	0x3a57be03	0.0008229913
5	0x3cb324b6	0.021868091
6	0xbd8fcbc4	-0.07021287
7	0x3c83d8be	0.016094562
8	0xbd3c4ee7	-0.045973685
9	0xbc8726e5	-0.016498039
